lstm_autoencoder_industrial2.pth (torch, 73148 bytes, 8 tensors)

encoder.weight_ih_l0 f4 [256, 1]
0	0xbc0d77de	-0.008634536
1	0xbd303c5a	-0.043026306
2	0xbdb21b1c	-0.08696577
3	0x3e2c3fed	0.16821261
4	0x3d35bc88	0.04436925
5	0x3d45a720	0.048255086
6	0xbe060b7d	-0.1309032
7	0x3e82e060	0.2556181
8	0x3f2843a1	0.65728194
9	0x3df56eb3	0.11984005
10	0x3bec0ed7	0.0072039175
11	0xbbc9a816	-0.0061540706
12	0xbd0d3a9c	-0.034479722
13	0x3e9d331b	0.30703053
14	0xbd810e04	-0.063015014
15	0x3db5c632	0.088756934
16	0x3c254def	0.010089382
17	0x3e46e0c6	0.19421682
18	0x3ce79136	0.028267484
19	0xbd94ab89	-0.0725928
20	0x3de4b32e	0.11166988
21	0x3e326c8b	0.17424218
22	0x3e2b0cfc	0.16704172
23	0x3dcea090	0.100892186
24	0xbc4b7cb5	-0.012419869
25	0xbc893a4e	-0.016751435
26	0x3e5eeaac	0.21769208
27	0x3e312866	0.17300567
28	0x3d5e0cbd	0.054211367
29	0x3ea03f20	0.3129816
30	0xbd486e5e	-0.04893338
31	0x3e76b087	0.24090777
32	0xbe378e7e	-0.1792545
33	0x3e46779f	0.1938157
34	0x3e1b7d7e	0.1518459
35	0x3ee1944f	0.44058463
36	0x3dd1bba5	0.102408685
37	0x3d59b050	0.05314666
38	0x3dee5e87	0.116391234
39	0x3e09a116	0.13440356
40	0x3e1ad8cf	0.15121768
41	0x3efe012a	0.49610263
42	0xbe50db09	-0.20396055
43	0x3ed88da8	0.42295575
44	0x3e1717ef	0.14755224
45	0xbd3f7b71	-0.046748582
46	0x3cb874ad	0.022516573
47	0x3e09631c	0.13416713
48	0x3e31c688	0.1736089
49	0xbdc29e44	-0.09502843
50	0x3d0921fe	0.033479683
51	0x3c0b2e5e	0.0084949415
52	0x3e5ca01e	0.21545455
53	0x3e530a96	0.20609507
54	0x3cf0da71	0.029401036
55	0x3a800036	0.0009765688
56	0x3d5386da	0.051642276
57	0x3d3dfa88	0.046381503
58	0x3d4dc1a5	0.050233502
59	0xbd0ec5cb	-0.0348566
60	0xbe2391b1	-0.15973546
61	0x3f2d9157	0.67799896
62	0x3e7d0feb	0.24713103
63	0x3ee19d95	0.44065538
64	0x3d2c553b	0.04207347
65	0xbd8bc881	-0.068253525
66	0x3d85334c	0.06503925
67	0x3dee0369	0.11621744
68	0xbd926114	-0.071474224
69	0xbc6132d4	-0.0137450285
70	0x3d43a031	0.047760192
71	0x3d3177a4	0.04332699
72	0x3ef21150	0.47278833
73	0xbd96e6c8	-0.07368237
74	0x3c943396	0.018091004
75	0xbd9174cf	-0.071023576
76	0x3cc70b57	0.0242974
77	0x3e2b54d5	0.1673158
78	0x3d935287	0.07193475
79	0xbd81bfdf	-0.06335425
80	0xbd5dd630	-0.054159343
81	0x3e0ce4d0	0.1375916
82	0x3d9de3c6	0.0770946
83	0x3da63e09	0.08117301
84	0x3e3def1a	0.18548241
85	0x3cfb9e7e	0.030715223
86	0x3e3fc36b	0.1872689
87	0xbe0c3f9e	-0.13696143
88	0x3dd7bad7	0.10533684
89	0xbddd5542	-0.10807277
90	0xbd71dc8a	-0.059048213
91	0xbd5f7109	-0.054551158
92	0x3d9d09d1	0.07667888
93	0x3da427ab	0.080153786
94	0xbe0d6c4e	-0.13810846
95	0x3ea9ad37	0.33139965
96	0xbe431359	-0.1905035
97	0x3e249ccd	0.1607544
98	0x3e1439a8	0.14475119
99	0x3e62d3bb	0.22151081
100	0x3d70e78b	0.058814567
101	0x3e2bcc5b	0.16777174
102	0x3d462a7e	0.048380367
103	0x3e0ff2e8	0.14057505
104	0x3dc8059c	0.09766695
105	0xbcca3d7c	-0.024687521
106	0xbe1f7e77	-0.15575586
107	0x3eb960ac	0.36206567
108	0x3dfe3567	0.124125294
109	0xbdd06aa4	-0.1017659
110	0xbd53a7e7	-0.051673796
111	0x3cab7366	0.02092905
112	0x3ded37b3	0.115828894
113	0xbda333f4	-0.07968894
114	0x3c148733	0.009065437
115	0xbe5f4206	-0.2180253
116	0x3d8b6109	0.06805617
117	0x3e2ac599	0.1667694
118	0x3db6b6c2	0.08921577
119	0x3dbad646	0.09122901
120	0xb94a2c41	-0.00019280707
121	0xbbf44263	-0.007454203
122	0x3da58490	0.08081925
123	0xbdf7b7bd	-0.12095592
124	0xbe1fed98	-0.15617979
125	0x3edb4edf	0.4283361
126	0x3d8ee60c	0.06977472
127	0x3e8371f9	0.25672892
128	0xbd863277	-0.06552594
129	0x3d150f54	0.03639157
130	0xbd2060da	-0.039154865
131	0xbc1262ea	-0.008934716
132	0xbd3faf31	-0.046797935
133	0x3df554be	0.11979054
134	0x3e1af1bd	0.15131278
135	0xbe0bd8ee	-0.13656971
136	0xbe13ca35	-0.14432605
137	0xbd193175	-0.03740068
138	0x3e0336a8	0.12813818
139	0x3d99c583	0.075083755
140	0x3d645751	0.055747334
141	0x3eaec975	0.34138075
142	0x3e139beb	0.14414947
143	0x3dce07e7	0.10060101
144	0x3cd48642	0.025942925
145	0xbd3dd005	-0.04634096
146	0xbddc0a90	-0.10744202
147	0x3d9c4128	0.07629615
148	0x3e5f7776	0.21822914
149	0x3c2a3396	0.010388276
150	0xbcb55849	-0.022136824
151	0x3c2836b7	0.010266951
152	0xbd399eea	-0.045317568
153	0x3d5422db	0.051791053
154	0xbe5c0eeb	-0.21490066
155	0x3d2de7bd	0.04245733
156	0xbd3b7570	-0.045766294
157	0xbdb99499	-0.09061546
158	0x3e44b98c	0.19211406
159	0x3dab0244	0.083500415
160	0xbdd090a3	-0.10183837
161	0xbbcebb51	-0.006308951
162	0xbe4057a6	-0.18783435
163	0x3e304fda	0.17217961
164	0xbdfb5996	-0.122729465
165	0xbdf7cf0f	-0.1210004
166	0x3e00b0a3	0.12567382
167	0xbde3f7f6	-0.11131279
168	0x3dd34961	0.1031673
169	0x3ebb875c	0.36626709
170	0xbc53a86d	-0.012918574
171	0x3cc42497	0.023943229
172	0x3dc854a7	0.09781771
173	0x3d63aa08	0.055582076
174	0x3d17f704	0.037100807
175	0x3e1dc003	0.15405278
176	0xbe37090a	-0.17874542
177	0x3e17b6d7	0.14815842
178	0xbc872a18	-0.016499564
179	0x3e5f3c4d	0.21800347
180	0xbd0d67ab	-0.034522694
181	0x3e906a6d	0.28206196
182	0x3e2be03a	0.16784754
183	0x3db255c3	0.08707764
184	0xbdfb92e4	-0.122838765
185	0x3e38b4cb	0.18037717
186	0x3e478e9c	0.19487995
187	0xbdb42a18	-0.08797091
188	0x3df1f1cb	0.118136965
189	0x3eb44ac6	0.35213298
190	0x3e15d9ff	0.1463394
191	0xbe9cdbca	-0.30636436
192	0x3e11494d	0.14188118
193	0xbbc01953	-0.005862394
194	0x3d65d73c	0.056113467
195	0x3e1569c0	0.14591122
196	0xbd69fcb4	-0.057125762
197	0x3e132a9e	0.14371726
198	0x3d7b123a	0.06129668
199	0x3eace7a0	0.33770466
200	0x3f343621	0.70395094
201	0xbcbcef40	-0.023063302
202	0x3d596560	0.053075194
203	0x3e1e0fcc	0.15435714
204	0xbe333dae	-0.17503998
205	0x3ed64625	0.4185039
206	0x3dc4b271	0.096043475
207	0x3d9c62d5	0.07636038
208	0x3d8f6202	0.070011154
209	0x3e5b8949	0.21439089
210	0xbd3ec649	-0.04657582
211	0xbe142069	-0.14465488
212	0x3ea3ab75	0.3196675
213	0x3ccce9d4	0.025013842
214	0x3e877203	0.26454172
215	0x3cd6cf13	0.026221788
216	0x3cffab87	0.03120972
217	0xbcc2727f	-0.023736237
218	0x3e1466a6	0.14492282
219	0xbd1656f5	-0.036704022
220	0x3e3cc5ce	0.18434832
221	0x3eb40bae	0.3516516
222	0xbe71aa03	-0.2360001
223	0x3ea62bf8	0.3245542
224	0xbe1656ca	-0.14681545
225	0x3e585415	0.21125825
226	0x3e152935	0.145665
227	0x3f076060	0.5288143
228	0x3d990d22	0.07473208
229	0x3da28d62	0.07937123
230	0x3daae141	0.08343745
231	0x3e672b54	0.22575122
232	0x3e52acfd	0.20573802
233	0x3eef9a32	0.4679733
234	0xbd33849f	-0.04382765
235	0x3f083461	0.53204924
236	0x3d141cb3	0.036160182
237	0xb919ff73	-0.0001468638
238	0xbd9e4235	-0.07727472
239	0xbce870f3	-0.02837417
240	0x3e81d555	0.25358072
241	0xbd26b186	-0.040696643
242	0xbce001df	-0.027344642
243	0xbe644a43	-0.22293954
244	0x3eab8d9e	0.33506483
245	0x3dfa8377	0.12232106
246	0x3e31aafb	0.1735038
247	0x3bd0f8e6	0.0063773273
248	0x3e3ef7fe	0.18649289
249	0x3cb2dc83	0.021833664
250	0x3d6dc2be	0.05804705
251	0xbd6db2d5	-0.058031876
252	0xbe5ac7a3	-0.21365218
253	0x3f235ad0	0.63810444
254	0x3e71004a	0.23535267
255	0x3e7fff98	0.24999845

encoder.weight_hh_l0 f4 [256, 64]
0	0xbd95ade1	-0.073085554
1	0xbdd6220d	-0.104557134
2	0xbd02c9f8	-0.031930894
3	0xbc1b8bf9	-0.009493821
4	0x3ddf6c04	0.10909274
5	0xbd478138	-0.048707217
6	0x3dc5e50b	0.09662827
7	0xbd42b0e1	-0.047531966
8	0x3ba7a023	0.0051155253
9	0xbc2f68d5	-0.010706146
10	0xbd5b10a5	-0.05348267
11	0x3cc1c17a	0.023651827
12	0xbda4c40d	-0.08045206
13	0x3c52762b	0.012845556
14	0xbd89d7c1	-0.06730605
15	0xbda41e51	-0.08013595
16	0x3dca7fd8	0.098876655
17	0x3e334fde	0.17510936
18	0x3dbb5369	0.091467686
19	0xbd03e7f1	-0.03220362
20	0x3d0a4d7c	0.0337653
21	0x3d97b54a	0.07407625
22	0xbdef562e	-0.11686359
23	0x3d6d4075	0.0579228
24	0xbccde7e9	-0.025134997
25	0x3d7d88e1	0.061898116
26	0x3e185a68	0.14878237
27	0xbd8d1c88	-0.068902075
28	0x3cc180b3	0.023620939
29	0x3dec4e95	0.11538426
30	0x3d0e0e2a	0.034681477
31	0x3c9ae466	0.018907737
32	0xbd548f2b	-0.051894348
33	0x3db2dc89	0.0873347
34	0x3c987dc7	0.018614663
35	0xbe1622d0	-0.14661717
36	0xbdf1b1dd	-0.11801503
37	0xbd4f8e6c	-0.050672933
38	0xbadfb605	-0.0017067796
39	0xbd5abce9	-0.053402815
40	0xbcacb004	-0.021080025
41	0xbe2fed4c	-0.17180365
42	0xba876e20	-0.0010332502
43	0xbca5447a	-0.020174254
44	0x3da69212	0.081333295
45	0x3c5d0cdc	0.013491835
46	0xbcc28a6a	-0.023747642
47	0xbcf1b418	-0.02950482
48	0xbdb0736d	-0.08615766
49	0xbd7cc3fa	-0.061710335
50	0xbda66e89	-0.08126552
51	0x3d1dae74	0.03849645
52	0x3db6e5bf	0.08930539
53	0xbe5a0807	-0.21292125
54	0x3d4830e7	0.048874762
55	0x3d970226	0.07373457
56	0xbc81d4f9	-0.015848624
57	0x3e0dea7c	0.1385898
58	0xbd8b41b9	-0.06799645
59	0xbe11c5f8	-0.14235675
60	0x3d586732	0.05283279
61	0xbd87d137	-0.066317014
62	0x3d3d9c75	0.046291787
63	0x3e16b25c	0.14716476
64	0x3c07d619	0.008290791
65	0xbda76cef	-0.08175074
66	0x3b8d466b	0.004311373
67	0xbdcaf455	-0.09909884
68	0x3ddc8b44	0.1076875
69	0x3d940556	0.0722758
70	0x3d3f5aaf	0.046717342
71	0x3deeedff	0.11666488
72	0xbe0cc5ef	-0.1374738
73	0x3da26a84	0.079304725
74	0xbdd416fa	-0.10355945
75	0x3c69bc2e	0.014266057
76	0x3d8d0fe3	0.06887796
77	0x3dc66e81	0.09689046
78	0x3d7c5dc0	0.061612844
79	0x3e0db1fa	0.13837424
80	0x3dfcca16	0.12343232
81	0xbde2f464	-0.1108177
82	0xbd87af5e	-0.066252455
83	0x3c9875a6	0.018610787
84	0xbd53be51	-0.05169517
85	0x3d60a2c3	0.05484272
86	0x3d60ab88	0.054851085
87	0xbdf9e71b	-0.12202283
88	0xbd822769	-0.06355173
89	0xbdabaca5	-0.08382539
90	0xbe03d2fe	-0.12873456
91	0x3b7b6d32	0.0038364646
92	0xbd969dd0	-0.07354319
93	0x3df0c68e	0.11756621
94	0x3dfdf40a	0.124000624
95	0x3bd84968	0.0066005476
96	0xbc376d61	-0.011195512
97	0xbdc66963	-0.0968807
98	0xbda84fc3	-0.08218338
99	0x3d9cfbc4	0.07665208
100	0xbd8c3f02	-0.06847955
101	0xbd7b6fcf	-0.061385926
102	0x3d3ac30b	0.045596164
103	0xbd6c122d	-0.05763452
104	0xbdb5ddc5	-0.0888019
105	0x3d818917	0.06324976
106	0x3ad719a8	0.0016410844
107	0x3de724e4	0.11286333
108	0x3cdce20c	0.026963256
109	0x3d65030f	0.05591112
110	0xbdbcc735	-0.09217683
111	0x3c52d34a	0.012867758
112	0xbd063465	-0.03276481
113	0x3da7b980	0.08189678
114	0xbda61ff3	-0.081115626
115	0xbdad5c15	-0.08464829
116	0xbbb25dd5	-0.0054433146
117	0xbd2d4e14	-0.04231079
118	0xbd6719d4	-0.056421116
119	0x3d5d52e6	0.054034136
120	0x3ddabbba	0.10680337
121	0xbdcd32cd	-0.10019455
122	0x3d8c5cf7	0.06853669
123	0x3dd36c9c	0.1032345
124	0x3dd1458e	0.10218345
125	0x3d7bbdbc	0.06146024
126	0xbd395324	-0.045245305
127	0xbd0eaf5d	-0.03483521
128	0x3bd9843b	0.0066380776
129	0x3dc23f72	0.094847575
130	0xbd6968ce	-0.056984715
131	0x3c6c3f5c	0.014419403
132	0x3e0d43b9	0.13795365
133	0x3df15528	0.117838204
134	0x3cbd88fb	0.023136606
135	0xbd194db7	-0.03742763
136	0x3d469742	0.048484094
137	0xbd275ab9	-0.040858004
138	0xbe19b339	-0.15009774
139	0xbe1cbed0	-0.15307164
140	0x3ce39d3c	0.027784936
141	0xbd97431b	-0.07385846
142	0x3d93f3a6	0.072242066
143	0xbcd50c5e	-0.026006874
144	0xbd91d7d1	-0.07121242
145	0x3e10ad65	0.14128645
146	0x3c8aa02a	0.016922075
147	0x3cb639bb	0.022244325
148	0x3d39b28f	0.045336302
149	0x3d4c7b26	0.04992213
150	0xbbd1643c	-0.0063901227
151	0xbdc48913	-0.09596457
152	0xbd6a8029	-0.05725113
153	0x3c61051c	0.013734128
154	0x3da13b45	0.07872633
155	0xbd21ca2b	-0.039499443
156	0x3db4e6a6	0.08833055
157	0xbdf3069a	-0.118664935
158	0xbd8a89bd	-0.06764553
159	0x3e03f40c	0.12886065
160	0x3d1f5a6b	0.03890459
161	0xbe22b9d3	-0.15891199
162	0x3cdf3a33	0.027249431
163	0x3db78401	0.089607246
164	0x3d84765d	0.064678885
165	0xbdeb5f67	-0.11492806
166	0xbcf9f976	-0.03051446
167	0xbd42bd87	-0.04754403
168	0xbd703b55	-0.058650333
169	0xbe9c9247	-0.3058035
170	0xbdaba52b	-0.08381113
171	0x3c8cc24f	0.017182497
172	0xbe1c4026	-0.15258846
173	0xbde727af	-0.11286866
174	0xbd6a71f9	-0.0572376
175	0xbd2efe9c	-0.042723283
176	0xbdc4dbe5	-0.09612254
177	0x3d8579df	0.06517386
178	0x3cbf9a9e	0.023389157
179	0x3d03a54e	0.03214007
180	0xb7c763e3	-2.3769162e-05
181	0xbeb67406	-0.35635394
182	0x3e038105	0.12842186
183	0x3e02c67a	0.12771025
184	0xbd28807b	-0.041138154
185	0xbe18fc7f	-0.1494007
186	0x3de9b404	0.114112884
187	0x3d4b9e33	0.049711417
188	0xbe1188fc	-0.14212412
189	0x3da7d584	0.08195022
190	0x3de6d8c4	0.112718135
191	0x3e1ccda3	0.15312819
192	0xbc44764c	-0.011991095
193	0x3c295ddb	0.010337318
194	0x3de08631	0.10963095
195	0xbca47022	-0.020073
196	0x3d858d42	0.065210834
197	0x3d57aa46	0.05265262
198	0x3daf1884	0.08549598
199	0x3d8277b4	0.06370488
200	0xbce24b48	-0.027623788
201	0x3e025ae4	0.12729985
202	0xbc63979d	-0.013891128
203	0x3d901a63	0.07036283
204	0x3cc458ec	0.023968183
205	0x3de85d5b	0.11345931
206	0x3da5a8e9	0.08088858
207	0xbdd321c1	-0.103091724
208	0x3cf02e24	0.029318877
209	0x3b93d7f1	0.004511826
210	0x3dc6374b	0.09678515
211	0x3ca4951a	0.020090628
212	0xbd6a001b	-0.057129007
213	0x3dcd7385	0.10031799
214	0xbdc1e61e	-0.094677195
215	0x3dd07bd3	0.101798676
216	0xbd3a4fda	-0.04548631
217	0x3da2b170	0.07944
218	0x3da40698	0.0800907
219	0x3d3e590c	0.04647164
220	0xbda47bbe	-0.080314144
221	0x3e154e07	0.14580546
222	0x3df5f1a2	0.120089784
223	0xbdaaf26f	-0.08347022
224	0x3db75ac1	0.08952857
225	0x3de2a811	0.110672124
226	0xbc5c206e	-0.013435466
227	0xbd917314	-0.071020275
228	0x3dc9daca	0.09856184
229	0xbd5f8f31	-0.054579917
230	0xbc6a0e5e	-0.014285652
231	0xbd155668	-0.036459357
232	0xbe017465	-0.12642057
233	0xbe337232	-0.17524031
234	0x3d6fec6e	0.058575086
235	0x3cb219a2	0.021740738
236	0xbdc112c0	-0.094274044
237	0x3cc34b29	0.02383955
238	0x3db29a2a	0.08720811
239	0x3e0bad47	0.13640319
240	0x3e1a6061	0.15075828
241	0xbda0f083	-0.07858374
242	0xbdc44a25	-0.095844544
243	0x3e0748d2	0.13211372
244	0x3de7d89f	0.11320614
245	0xbc92da08	-0.017926231
246	0xbc96e6a5	-0.018420527
247	0xbb76b68a	-0.0037645423
248	0x3dadba48	0.08482796
249	0x3de825c9	0.11335332
250	0x3c9aabbd	0.01888072
251	0xbdd9899d	-0.10621951
252	0xbc9109eb	-0.017704925
253	0xbd502798	-0.05081901
254	0x3db15939	0.08659596
255	0x3d026371	0.031833116

encoder.bias_ih_l0 f4 [256]
0	0xbd257965	-0.040398974
1	0xbcceb4b5	-0.025232652
2	0x3d9b2620	0.07575631
3	0x3d7a7b10	0.061152518
4	0xbd3cf900	-0.046135902
5	0xbc0ac9e0	-0.008470982
6	0xbd5125a7	-0.0510613
7	0x3db82027	0.089905076
8	0x3e670c08	0.22563183
9	0xbb331ad0	-0.0027329214
10	0x3ca8131c	0.020516925
11	0x3c7413b5	0.014897277
12	0xbd502932	-0.050820537
13	0x3ea261cf	0.31715247
14	0x3e1e7023	0.15472464
15	0xbcfee3ae	-0.031114426
16	0x3bd1f856	0.006407778
17	0xbd9352af	-0.07193505
18	0x3c0f34e2	0.008740636
19	0xbdcdc53e	-0.100473866
20	0x3d0b7b31	0.03405303
21	0xba93ba40	-0.0011270717
22	0x3db7f131	0.089815505
23	0x3d4b3fe2	0.04962147
24	0xbdad4b45	-0.08461622
25	0xbc2d1e66	-0.01056633
26	0x3e751265	0.23932798
27	0x3b09a72c	0.0021004183
28	0x3cd5ddfc	0.026106827
29	0x3ab01067	0.0013432623
30	0x3d9d624c	0.07684764
31	0x3db229e3	0.086993955
32	0xbdcae80c	-0.09907541
33	0xbc419dce	-0.011817409
34	0x3d617b94	0.055049494
35	0x3e632aae	0.2218425
36	0x3db9926f	0.09061133
37	0x3e0fa7bb	0.14028828
38	0xbd2cc547	-0.042180326
39	0x3dac4fad	0.084136344
40	0xbdc7480a	-0.09730537
41	0x3e85595f	0.26044747
42	0xbaccc8c1	-0.0015623794
43	0x3dc795f1	0.09745396
44	0x3d46deac	0.0485522
45	0x3db619a1	0.08891607
46	0x3d34089f	0.043953534
47	0xbd00c4f7	-0.03143784
48	0x3e1c5c15	0.15269502
49	0xbc14f7b4	-0.00909226
50	0xbca6010f	-0.020264177
51	0xbc2ddccb	-0.010611723
52	0x3dbed243	0.09317448
53	0x3e5c16d4	0.21493083
54	0xbd789c41	-0.06069589
55	0x3df6e36f	0.12055098
56	0x3df16019	0.11785907
57	0x3da9bb5f	0.08287691
58	0x3d453633	0.04814739
59	0xbd805392	-0.0626594
60	0xbae4383c	-0.0017411779
61	0x3e3e2460	0.18568563
62	0x3da1f47a	0.07907958
63	0x3e1c9745	0.1529208
64	0xbd39ef6e	-0.045394354
65	0x3d0dda29	0.034631882
66	0xbd7ff422	-0.062488683
67	0xbd441db2	-0.047879882
68	0x3d2ba9db	0.041910034
69	0xbd26ffc7	-0.040771272
70	0x3bf08f29	0.007341285
71	0x3dae01e8	0.08496457
72	0x3aed0308	0.0018082568
73	0xbddadfb6	-0.10687201
74	0x3db9f3ac	0.0907968
75	0xbe2158ae	-0.15756485
76	0xbb68de4f	-0.0035532897
77	0xbdec27ef	-0.11531054
78	0x3dc22974	0.09480563
79	0xbd261347	-0.040545728
80	0xbc44ccef	-0.012011751
81	0xbdcb2596	-0.09919278
82	0x3d8fc3d2	0.07019772
83	0xbc0c41e9	-0.008560636
84	0x3dc01715	0.093794025
85	0x3cd933ed	0.026514018
86	0x3d9dec64	0.077111036
87	0x3db16abf	0.08662938
88	0x3d5fb962	0.054620154
89	0x3d74d4bb	0.059773188
90	0xbe6b55ed	-0.22981997
91	0x3d8fca7d	0.070210434
92	0x3d9acfe4	0.07559183
93	0xbd86b795	-0.06577984
94	0xbc1b34fe	-0.009473084
95	0x3d7e6115	0.062104303
96	0xbe05ee45	-0.13079174
97	0x3db45bf2	0.088066
98	0xbcea33af	-0.028589098
99	0xbe06a6f4	-0.13149625
100	0xbd3d14fc	-0.04616259
101	0xbddd6c6c	-0.108116955
102	0xbdc91162	-0.09817769
103	0x3d57799a	0.052606203
104	0xbd8976c9	-0.067121096
105	0xbe8d0725	-0.27544513
106	0xbdd1bdc3	-0.10241272
107	0x3d1ab5a4	0.037770882
108	0xbe1508a4	-0.14554077
109	0xbdefed90	-0.11715233
110	0xbdf076b1	-0.117413886
111	0xbd575768	-0.05257359
112	0xbd2a9948	-0.041650087
113	0x3d8c9e69	0.06866152
114	0xbe14b3d0	-0.14521718
115	0x3de9af6c	0.11410412
116	0xbbd2b10e	-0.006429798
117	0xbd023a35	-0.03179379
118	0x3ccb4c76	0.024816733
119	0xbcc3f884	-0.023922212
120	0x3d906c44	0.070519
121	0xbc4e0b98	-0.012576006
122	0xbd06d37d	-0.032916535
123	0x3dad8f34	0.084745795
124	0x3dbfe58c	0.093699545
125	0xbd946e99	-0.07247657
126	0xbcfe48b4	-0.031040527
127	0xbd8d3a30	-0.06895864
128	0x3cbc6bf4	0.023000695
129	0x3d40ca59	0.047067974
130	0xbdae2e72	-0.085049525
131	0xbd7ec8ac	-0.062203094
132	0x3de0fbfe	0.10985564
133	0x3e00f95e	0.12595126
134	0x3c251aae	0.010077162
135	0xbe0bcb5b	-0.13651793
136	0xbe4d10f1	-0.20025994
137	0xbdb26f25	-0.087126054
138	0xbdc0ff33	-0.094236754
139	0xbd45e8f8	-0.04831788
140	0x3d8295a3	0.06376197
141	0x3cf0aa51	0.029378088
142	0xbcd2c684	-0.025729425
143	0x3c74581e	0.014913587
144	0xbd427e94	-0.047483996
145	0xbd8ea73e	-0.06965493
146	0xbddafa2b	-0.10692247
147	0xbda58dba	-0.08083673
148	0xbd448221	-0.047975663
149	0xbe086e1e	-0.13323256
150	0x3e0c3ca9	0.13695015
151	0x3dbd12c3	0.09232094
152	0xbd9ea2c1	-0.077458866
153	0x3dcb5f86	0.09930329
154	0xbd802644	-0.062572986
155	0xbdbd8f3e	-0.09255837
156	0x3da39381	0.079871185
157	0x3c3ead7f	0.011638044
158	0xbcd100c1	-0.025513055
159	0x3e186127	0.1488081
160	0x3c782c66	0.015147304
161	0xbb3ef75f	-0.0029139144
162	0xbdc01951	-0.09379829
163	0x3e05a639	0.1305169
164	0xbd8dbc15	-0.069206394
165	0xbd1257c9	-0.03572825
166	0x3dcc227b	0.09967514
167	0xbdfb4970	-0.122698665
168	0x3dd186bb	0.10230776
169	0x3bf45cfc	0.0074573737
170	0xbb88f76b	-0.004179885
171	0xbc8d7592	-0.017267976
172	0x3cae7703	0.021296984
173	0xbd884296	-0.06653325
174	0xbceb0ddd	-0.028693134
175	0xbd66750f	-0.05626398
176	0xbe0065e2	-0.12538865
177	0xbcf035c6	-0.029322516
178	0x3d7338a5	0.059380192
179	0xbd3e5416	-0.04646691
180	0xbda5d2aa	-0.080968216
181	0xbd93e226	-0.07220869
182	0x3e03a21f	0.12854813
183	0x3dc305ce	0.095225915
184	0xbdd9f28e	-0.10641967
185	0xbd2dc2f7	-0.04242226
186	0x3db989f2	0.09059514
187	0xbc0e5128	-0.008686341
188	0x3cc87ef0	0.024474591
189	0x3e0c9c07	0.13731395
190	0x3dce2b57	0.1006686
191	0x3cc69396	0.024240296
192	0x3d38ec6d	0.04514735
193	0xbd4c2b82	-0.04984618
194	0x3e04b58f	0.12959884
195	0xbd7fbddc	-0.062436923
196	0xba30455f	-0.0006724204
197	0xbce08ffa	-0.027412403
198	0xbb6d4cb0	-0.003620904
199	0xbce65835	-0.028118232
200	0x3e0a26c6	0.13491353
201	0x3d7fbb89	0.062434707
202	0xbdef6137	-0.11688464
203	0x3c97a2d4	0.01851026
204	0x3c9607ee	0.018314328
205	0x3ecb1493	0.39664134
206	0x3d13f626	0.036123417
207	0xbe04b733	-0.1296051
208	0xba433074	-0.000744588
209	0xbcf6ae8f	-0.030112533
210	0x3d8f8e40	0.07009554
211	0xbc90cffe	-0.017677303
212	0x3daf88fa	0.08571048
213	0x3df37691	0.11887849
214	0xbd63906f	-0.055557664
215	0xbd9b979c	-0.075972766
216	0xbd7e245d	-0.062046397
217	0x3bb1c6c4	0.005425306
218	0x3eb686d7	0.3564975
219	0x3c81530f	0.015786676
220	0x3d54d378	0.051959485
221	0x3db62c72	0.08895196
222	0x3da8cb9e	0.08241962
223	0x3dde27c4	0.108474284
224	0x3d086842	0.033302553
225	0x3e045ab0	0.1292522
226	0x3d8c3dad	0.06847701
227	0x3eb6067f	0.3555183
228	0xbcaf1349	-0.0213715
229	0xb7d10840	-2.4918583e-05
230	0x3b978907	0.004624489
231	0x3cdb0030	0.026733488
232	0xbd91e825	-0.07124356
233	0x3ec7a59d	0.3899354
234	0xbe0deedc	-0.13860649
235	0x3b8f6c28	0.004376907
236	0xbd732b42	-0.059367426
237	0x3ceadc3a	0.028669465
238	0x3dbecc3d	0.09316299
239	0x3dd8d7e5	0.105880536
240	0x3e3c9b86	0.18418702
241	0xbdc1f275	-0.09470073
242	0xbe0c62a5	-0.13709505
243	0x3cd4d707	0.02598144
244	0x3d0dfa1e	0.03466236
245	0x3e6fbca2	0.23411801
246	0x3d2bf5f8	0.04198262
247	0xbd4750c5	-0.048661012
248	0x3d832dc5	0.06405214
249	0x3ca1db43	0.019757872
250	0xbcb2374d	-0.021754885
251	0xbd74aa71	-0.059732858
252	0xbdc82c48	-0.09774071
253	0x3e7dee40	0.24797916
254	0xbda5094a	-0.080584124
255	0x3e390ea4	0.18071991

encoder.bias_hh_l0 f4 [256]
0	0xbc075923	-0.008260998
1	0xbd020528	-0.0317432
2	0xbcce7136	-0.025200468
3	0xbdbe160a	-0.09281547
4	0xbddefcd9	-0.108880706
5	0x3e034a3a	0.12821284
6	0xbc968f26	-0.018378805
7	0xbc3fd580	-0.011708617
8	0x3db056f2	0.086103335
9	0x3d928793	0.07154765
10	0x3c9205af	0.017824976
11	0x3e48c79e	0.19607398
12	0xbd49411a	-0.04913435
13	0x3ed2a2dd	0.4113988
14	0x3b144ab4	0.0022627534
15	0xbd5e3478	-0.054249257
16	0xbc328c39	-0.0108976895
17	0xbd0b8652	-0.034063645
18	0xbdaee9f4	-0.08540717
19	0xbdd0199d	-0.10161135
20	0x3e62094b	0.22073857
21	0x3dd1aee7	0.10238438
22	0xbc953eb1	-0.01821837
23	0xbd8a4d65	-0.06753043
24	0x3ba8e151	0.005153813
25	0xbdd4eea1	-0.10397077
26	0x3e87de22	0.2653666
27	0x3d858b0a	0.0652066
28	0x3df0ac3a	0.117515996
29	0x3d88877d	0.06666467
30	0xbca1cd1c	-0.019751124
31	0x3c06e756	0.008233866
32	0xbde08d10	-0.109644055
33	0xbd8376d4	-0.06419149
34	0xbdc0f9b3	-0.09422626
35	0x3ece51de	0.40296835
36	0x3d5e0873	0.054207277
37	0xbd29b1e0	-0.0414294
38	0xbce91059	-0.028450178
39	0x3d613787	0.054984596
40	0x3e098c1a	0.13432351
41	0x3e88e915	0.26740327
42	0xbd779750	-0.060447037
43	0xbc7a85c8	-0.015290685
44	0xbda88a76	-0.08229534
45	0xbcf3ffea	-0.029785115
46	0xbd4a5a99	-0.049402807
47	0x3d253378	0.040332288
48	0x3a013f6e	0.0004930411
49	0xbccba635	-0.024859527
50	0x3c351348	0.01105196
51	0x3e206eca	0.15667263
52	0xbc18fbb8	-0.009337358
53	0x3e88b0af	0.266973
54	0xbdb6e4f0	-0.08930385
55	0xbdd4452d	-0.10364757
56	0xbb95ff56	-0.0045775576
57	0x3d9d95e9	0.07694609
58	0x3d9549ca	0.07289465
59	0xbd02a3f6	-0.031894647
60	0x3cc0edf4	0.023550965
61	0x3d880bdc	0.06642887
62	0xbdb3b6e6	-0.087751195
63	0x3e8796eb	0.2648233
64	0xbd66db20	-0.056361318
65	0xbd9dfc40	-0.077141285
66	0xbd09c133	-0.033631515
67	0xbd2ada93	-0.041712355
68	0xbdd37be0	-0.10326362
69	0xbc83eaf1	-0.01610324
70	0xbddd5475	-0.108071245
71	0xbd9771ea	-0.07394774
72	0xbd28c69f	-0.041205045
73	0x3d7dab56	0.061930977
74	0xbc160c3e	-0.009158192
75	0x3d64ddc7	0.055875566
76	0x3d931152	0.07181038
77	0xbd84f29a	-0.06491585
78	0x3cd5c22a	0.026093561
79	0x3d4416b5	0.047873218
80	0xbcb95711	-0.022624524
81	0xbdfddfd2	-0.12396206
82	0x3d943d7e	0.07238291
83	0x3d91d6de	0.07121061
84	0x3c8aafb1	0.01692948
85	0x3d6bbb95	0.05755194
86	0x3dc81797	0.097701244
87	0x3d0a095f	0.033700343
88	0x3dce0c7b	0.10060974
89	0xbb92cfba	-0.0044803293
90	0xbe062b38	-0.13102424
91	0x3d120a19	0.03565416
92	0x3bf16a80	0.007367432
93	0x3d1cb082	0.03825427
94	0xbcda93be	-0.026681777
95	0xbe02c595	-0.12770684
96	0x3d338d20	0.04383576
97	0xbceab35f	-0.028649984
98	0xbba451d5	-0.005014638
99	0xbb82c0c4	-0.0039902646
100	0xbdb55bb7	-0.08855384
101	0xbd8df740	-0.06931925
102	0x3d01c09b	0.031677824
103	0xbe02f1b4	-0.12787515
104	0xbd9b5cd7	-0.07586067
105	0xbe8517ef	-0.25994822
106	0xbd9ea307	-0.07745939
107	0xbd901e0b	-0.0703698
108	0x3be0f070	0.0068646
109	0xbd88cd42	-0.06679775
110	0xbdf61b61	-0.12016941
111	0xbca0b81c	-0.01961904
112	0x3d1261d2	0.03573782
113	0x3d21fdb4	0.03954859
114	0xbd74b2d9	-0.059740875
115	0x3dcb611d	0.09930632
116	0xbdc04b58	-0.09389371
117	0xbe2d8a7c	-0.16947359
118	0xbdeab7b1	-0.114608176
119	0xbd4a6427	-0.04941192
120	0xbd4dc4c8	-0.050236493
121	0x3dbdb02e	0.09262119
122	0xbd1c7693	-0.03819902
123	0x3d93ca58	0.072163284
124	0x3da15c88	0.07878977
125	0xbe29a858	-0.16568124
126	0xbd16cccd	-0.036816407
127	0x3d5dbeb6	0.054136954
128	0x3d40f294	0.04710634
129	0x3dc29a56	0.095020935
130	0x3cc53e82	0.024077658
131	0x3ca22224	0.01979167
132	0x3db631a6	0.088961884
133	0x3e072730	0.13198543
134	0xbde403ff	-0.11133575
135	0xbdeddcdb	-0.116143905
136	0x3cb3714b	0.021904608
137	0xbd0eebdd	-0.034892906
138	0x3b0d4848	0.0021557976
139	0x3d1174a1	0.035511617
140	0xbc654441	-0.013993324
141	0x3b400a88	0.0029303152
142	0x3cc3912a	0.02387293
143	0xbbaec50d	-0.005333549
144	0xbbc7d44a	-0.006098305
145	0x3d843d72	0.06457032
146	0x3d9b0621	0.07569528
147	0x3d82a7b1	0.06379641
148	0x3d22e3aa	0.0397679
149	0xbdeb6afe	-0.114950165
150	0xbd90c13a	-0.07068105
151	0xbdfeb93d	-0.12437675
152	0xbdd36bbb	-0.10323282
153	0x3c69a960	0.014261574
154	0x3c7e611d	0.015526083
155	0xbdd2fd4e	-0.1030222
156	0x3ddea553	0.10871377
157	0xbe052e5e	-0.13005969
158	0xbd8dde5d	-0.06927178
159	0xbd55e89f	-0.052223798
160	0x3d5aae88	0.053389102
161	0xbdf8558b	-0.12125691
162	0xbd61fa30	-0.055170238
163	0xb9a7e15b	-0.00032020625
164	0xbd7a21e4	-0.061067477
165	0xbdc2b251	-0.095066674
166	0x3c04ed76	0.008113256
167	0xbd2a4de7	-0.0415782
168	0x3d8fc055	0.07019106
169	0x3d3c7f40	0.046019793
170	0xbccca93c	-0.024983041
171	0x3dd0d7d7	0.10197418
172	0x3b8ef829	0.004363079
173	0x3d9b369e	0.07578777
174	0xbd9adc87	-0.075615935
175	0x3af10a3c	0.0018389891
176	0x3d64b699	0.0558382
177	0xbdbfb9c9	-0.093616076
178	0xbd6c368b	-0.057669204
179	0xbdaddd5e	-0.08489488
180	0x3cc6b375	0.024255494
181	0x3cf28c43	0.029607898
182	0x3ce305d3	0.027712738
183	0xbc1c91ff	-0.009556293
184	0xbd0a38de	-0.03374564
185	0x3d19542b	0.037433784
186	0x3dac1cb0	0.08403909
187	0xbce34d03	-0.027746683
188	0xbd990a48	-0.07472664
189	0x3e01fcba	0.12694064
190	0x3d227c87	0.03966954
191	0xbd91b238	-0.07114071
192	0xbcc58177	-0.024109585
193	0xbbc4a255	-0.006000797
194	0x3db86a96	0.09004705
195	0x3dc7435a	0.09729643
196	0x3cf1c0f7	0.029510958
197	0x3d95f4dd	0.073220946
198	0x3c6b6b2e	0.014368815
199	0x3daa6f79	0.08322043
200	0x3d8311fd	0.06399915
201	0xbbe407b1	-0.0069589247
202	0xbe0960ac	-0.13415784
203	0xbcc5b0d0	-0.024132162
204	0x3dab2183	0.08356001
205	0x3e9b9a24	0.30391037
206	0x3ddbeb0b	0.1073819
207	0x3db1764d	0.08665142
208	0xbcd33f87	-0.025787128
209	0x3d71e39b	0.059054952
210	0xbd2c18b5	-0.04201575
211	0x3bc93638	0.0061404966
212	0x3d03db67	0.03219166
213	0xbd8607a1	-0.06544424
214	0x3c692bd2	0.014231639
215	0x3db09260	0.08621669
216	0xbdafa83e	-0.085770115
217	0x3d87cffb	0.06631466
218	0x3ea26f3f	0.317255
219	0xbb8ca278	-0.0042918287
220	0xbddaf994	-0.106921345
221	0x3b807a0f	0.0039208005
222	0xbd6743fb	-0.056461316
223	0xbcdcdd84	-0.026961096
224	0xbe004fce	-0.12530443
225	0xbdaf3d60	-0.08556628
226	0xbd9e25f1	-0.077220805
227	0x3eb55a0a	0.35420257
228	0xbda24e21	-0.07925058
229	0x3d8397be	0.06425427
230	0xbd754682	-0.059881695
231	0x3e01328d	0.1261694
232	0xbd5293c6	-0.05141046
233	0x3ef54685	0.47905365
234	0xbdbf09b5	-0.09328023
235	0x3c04be09	0.008101949
236	0x3c99c6b8	0.018771514
237	0x3d2fbb17	0.042903032
238	0xbdf4dd2b	-0.11956247
239	0x3e0c1d5e	0.13683078
240	0x3ddcbbf9	0.107780404
241	0x3c9974ec	0.01873251
242	0x3cd38a2c	0.025822721
243	0x3e0be81f	0.13662766
244	0xbd6d527d	-0.057939995
245	0x3e8c11e0	0.27357388
246	0x3c5e0fd3	0.0135535775
247	0x3dbe9aca	0.093068674
248	0x3e0b2502	0.13588336
249	0xbd66330c	-0.056201026
250	0xbd556cd7	-0.05210575
251	0xbdb9d293	-0.09073367
252	0x3dc3bcbc	0.095574826
253	0x3e09e4c4	0.13466173
254	0x3d7d96ac	0.06191127
255	0x3e93d04e	0.2886986

decoder.weight_ih_l0 f4 [4, 64]
0	0xbe5c05b0	-0.21486545
1	0x3f12193d	0.5706976
2	0xbd8de0bc	-0.0692763
3	0xbeab5008	-0.33459496
4	0x3edb225f	0.4279966
5	0xbdcff612	-0.10154356
6	0x3f38e45a	0.72223437
7	0xbf83cd8c	-1.0297103
8	0xbf8884dd	-1.0665547
9	0x3f074c7d	0.52851087
10	0x3f0b8de1	0.54513365
11	0x3d50c5ee	0.05097001
12	0x3f1084bf	0.56452554
13	0xbef1157c	-0.47086704
14	0x3ef68c30	0.4815383
15	0xbe4bd9bb	-0.19907276
16	0x3eb7dcf1	0.35910752
17	0x3eafcba4	0.34335053
18	0xbf1f6335	-0.6226075
19	0x3d06b3b6	0.03288623
20	0x3f01ae5d	0.5065668
21	0xbe12c678	-0.14333522
22	0xbdf76f88	-0.1208182
23	0xbcc1b263	-0.023644632
24	0xbf2ce559	-0.67537457
25	0x3f5b20ef	0.8559713
26	0xbed1b29f	-0.4095659
27	0x3f138b98	0.5763488
28	0xbf201234	-0.62527776
29	0xbe87775e	-0.26458257
30	0x3f6f2d45	0.9342845
31	0xbf3b5ea7	-0.73191303
32	0xbf048a11	-0.5177317
33	0xbdd921fd	-0.10602186
34	0xbe3da904	-0.18521506
35	0xbebd85a5	-0.37016025
36	0xbc83a2e1	-0.016068878
37	0xbf4bdb81	-0.7963181
38	0x3e6ec3ed	0.23316927
39	0x3e19a8a4	0.15005738
40	0x3eeeb735	0.4662415
41	0xbf087b0e	-0.53312767
42	0xbf7b8bb1	-0.9826003
43	0xbf5c8751	-0.86143976
44	0x3d5e1bad	0.054225612
45	0x3f132481	0.57477576
46	0x3f4c1c1b	0.79730386
47	0x3f84dba1	1.0379525
48	0xbd2aece7	-0.041729834
49	0x3d7504f0	0.059819162
50	0xbea89e7d	-0.32933417
51	0x3f704d62	0.93868077
52	0xbf5df650	-0.8670397
53	0xbf1c4960	-0.6104946
54	0xbf11fbd5	-0.5702489
55	0x3f7e0fc8	0.9924283
56	0xbef48b1d	-0.47762385
57	0x3f778d73	0.9670021
58	0x3f7c51dc	0.9856241
59	0xbf4e4272	-0.8057014
60	0x3f326860	0.69690514
61	0x3eb3de36	0.3513047
62	0xbe40e2e4	-0.18836552
63	0xbead3016	-0.3382575
64	0xbf785ae5	-0.97013694
65	0x3f685ee3	0.90769786
66	0x3f544a40	0.82925797
67	0x3f3b5dbd	0.7318991
68	0xbe4af105	-0.19818504
69	0xbf580173	-0.8437721
70	0x3edeb0eb	0.43494353
71	0x3f82466b	1.017774
72	0x3eee4345	0.46535698
73	0xbea3c309	-0.31984738
74	0x3e40c9bc	0.18826956
75	0xbee05abb	-0.43819222
76	0x3efaf741	0.49016765
77	0x3e827e9f	0.2548723
78	0xbe089899	-0.13339461
79	0xbead0bc3	-0.33798036
80	0xbf3c1b0d	-0.73478776
81	0x3ecb15fb	0.39665207
82	0x3f2cf32d	0.67558557
83	0x3e3b16bd	0.18270393
84	0x3f45da5b	0.7728631
85	0x3e91cbd6	0.28475827
86	0xbf30f9aa	-0.6913096
87	0x3ef49e66	0.47777098
88	0xbec4bade	-0.38423818
89	0x3f01c081	0.5068436
90	0xbf7dca1d	-0.99136525
91	0xbe8e2bfb	-0.2776793
92	0x3d4a7a8c	0.049433276
93	0x3f202295	0.6255277
94	0x3f3d0463	0.7383482
95	0x3e0d06b1	0.13772084
96	0x3eb51375	0.35366407
97	0xbed0fd7b	-0.4081839
98	0xbf067af6	-0.52531374
99	0xbea7be09	-0.32762173
100	0xbd0e7311	-0.034777705
101	0x3f26afa8	0.6511178
102	0xbd9dee1f	-0.077114336
103	0xbf67a6ed	-0.90489084
104	0x3ec68825	0.38775745
105	0x3de5caeb	0.11220344
106	0x3f2bd22a	0.6711756
107	0x3f175137	0.591083
108	0x3f109651	0.56479365
109	0xbf072297	-0.52787155
110	0xbf441be1	-0.7660504
111	0xbecebaf0	-0.40376997
112	0xbe0af1e6	-0.1356884
113	0x3f0248ba	0.5089222
114	0x3ed98816	0.42486638
115	0x3f59d2e5	0.85087425
116	0x3ee1b370	0.44082212
117	0x3f409182	0.7522203
118	0xbf3d0e42	-0.7384988
119	0xbd8a965c	-0.0676696
120	0xbf5417f4	-0.8284905
121	0x3f213fee	0.62988174
122	0xbe85002c	-0.25976694
123	0xbed1bf48	-0.4096625
124	0x3f4e2564	0.80525804
125	0x3ee26c61	0.44223312
126	0x3dc07c66	0.09398727
127	0xbd91bf7f	-0.07116603
128	0x3f4767b4	0.77892613
129	0xbf11982e	-0.5687283
130	0xbe357cbb	-0.17723362
131	0xbf319143	-0.69362277
132	0xbe58ddb2	-0.2117832
133	0x3e259573	0.16170292
134	0x3e9c2e4a	0.30504066
135	0xbed0420e	-0.40675396
136	0xbf0e47b4	-0.5557816
137	0x3c335fd6	0.010948142
138	0x3f39f183	0.7263414
139	0x3ea4403e	0.32080263
140	0xbd7d8282	-0.06189204
141	0x3f1e5fd9	0.61865
142	0x3da0f9d9	0.07860155
143	0x3d80d1d5	0.06290022
144	0xbf599fb3	-0.85009307
145	0xbf1f94ba	-0.62336314
146	0xbf1d70d1	-0.6150027
147	0x3ebe7af5	0.37203184
148	0x3f68b8ef	0.90907186
149	0xbf36b363	-0.7136747
150	0x3f651379	0.8948284
151	0xbe715152	-0.23566177
152	0x3f2dfd13	0.67964286
153	0xbf526e58	-0.8219962
154	0xbf18927c	-0.5959852
155	0xbeebd10c	-0.46057928
156	0x3f6f99f9	0.9359432
157	0xbf2f8395	-0.68560153
158	0x3f0fe944	0.5621531
159	0x3dbc0900	0.09181404
160	0xbf3cc1e9	-0.73733383
161	0xbddf0774	-0.108900934
162	0xbdabca8a	-0.08388241
163	0x3f313fd2	0.6923801
164	0xbe9d044b	-0.30667338
165	0xbf06560e	-0.5247506
166	0x3f0cde4f	0.55026716
167	0xbf7546cc	-0.9581115
168	0x3ebe9fdd	0.3723134
169	0x3f1ffac4	0.6249201
170	0x3f513e93	0.81736106
171	0x3f2063c2	0.6265222
172	0x3f066f81	0.5251389
173	0x3ef5a13e	0.4797458
174	0x3f6159bc	0.8802755
175	0x3f357cc2	0.7089349
176	0xbf4879fe	-0.78311145
177	0x3f79eeac	0.9762981
178	0xbea9fc81	-0.33200458
179	0x3f115f1e	0.5678576
180	0xbf4679e7	-0.7752976
181	0x3f3859e7	0.7201218
182	0x3f4a3b98	0.7899718
183	0x3e841dd5	0.2580401
184	0xbebe9940	-0.37226295
185	0x3e82a977	0.25519916
186	0x3e066217	0.13123356
187	0x3e28a153	0.1646779
188	0x3f2ffd20	0.68745613
189	0x3e5bd20b	0.21466844
190	0x3f5fb0e8	0.8737931
191	0xbf50815b	-0.8144738
192	0xbf299e1d	-0.66256887
193	0xbf0951a1	-0.5364018
194	0xbe1794e8	-0.14802897
195	0x3f0a0954	0.53920484
196	0x3f57346b	0.8406436
197	0x3e32c33b	0.17457287
198	0x3f590d18	0.84785604
199	0xbe790eaa	-0.24322
200	0xbf14b8af	-0.58094305
201	0xbf2672cc	-0.65018916
202	0xbf083582	-0.53206646
203	0xbe81558a	-0.25260574
204	0x3f2201a6	0.63283765
205	0x3f41af19	0.756578
206	0x3f749024	0.9553244
207	0x3ec68db2	0.3877998
208	0x3f82c5fe	1.0216672
209	0x3f051886	0.51990545
210	0x3f54442e	0.82916534
211	0xbf3b1844	-0.730839
212	0x3f1b24e4	0.60603166
213	0x3f2cb53d	0.6746405
214	0xbe841d15	-0.25803438
215	0x3f546ddf	0.8298015
216	0xbf215680	-0.63022614
217	0x3e82c0dd	0.25537768
218	0x3f3fe6ea	0.7496172
219	0x3e4c9971	0.19980408
220	0xbea0a132	-0.31372982
221	0xbf582a69	-0.8443971
222	0x3d66b460	0.056324363
223	0x3f5cfcdb	0.86323327
224	0xbf3aaa7a	-0.72916377
225	0x3f110ee6	0.5666336
226	0x3dcffe51	0.10155929
227	0x3f8940a8	1.0722857
228	0x3f245cc0	0.64204025
229	0x3f09eddf	0.5387859
230	0xbeedf595	-0.46476427
231	0x3efa4de7	0.4888756
232	0x3ed5daae	0.41768402
233	0x3f103d34	0.5634339
234	0x3ed7855c	0.42093933
235	0x3eefa513	0.4680563
236	0xbdd9f58d	-0.10642538
237	0xbeb4229a	-0.3518265
238	0x3db9fc22	0.09081294
239	0x3f619d43	0.8813059
240	0x3e1d5508	0.15364468
241	0xbcc7d70b	-0.024394533
242	0xbefdb8cf	-0.4955506
243	0x3e06ffa0	0.1318345
244	0xbe9e155d	-0.30875674
245	0x3f4f89b2	0.8106948
246	0xbec1ae9b	-0.37828526
247	0xbf49a12c	-0.78761554
248	0x3f491d86	0.78560674
249	0x3f78a8c7	0.97132534
250	0xbf3eb7ee	-0.74499404
251	0x39e08cf4	0.00042829628
252	0xbf0527aa	-0.5201365
253	0xbe461f9d	-0.19347997
254	0x3f3946cb	0.72373646
255	0xbe98c7d9	-0.29839972

decoder.weight_hh_l0 f4 [4, 1]
0	0x3f5717cd	0.8402069
1	0xbee81078	-0.45325065
2	0x3e5d219c	0.21594852
3	0xbe52d8cd	-0.20590515

decoder.bias_ih_l0 f4 [4]
0	0x3d18c636	0.037298404
1	0x3ea75c08	0.32687402
2	0xbde938ad	-0.11387763
3	0x3f1a4685	0.60263854

decoder.bias_hh_l0 f4 [4]
0	0x3f4ad076	0.79224336
1	0xbeef63b8	-0.46755767
2	0xbe3d71a3	-0.1850038
3	0x3f59c0a3	0.85059565
