lstm_autoencoder_industrial1.pth (torch, 73148 bytes, 8 tensors)

encoder.weight_ih_l0 f4 [256, 1]
0	0x3c31d004	0.010852817
1	0xbe2adc5c	-0.16685623
2	0x3e8e00b6	0.27734917
3	0x3e6899c3	0.22714905
4	0xbe16a019	-0.1470951
5	0x3e27df05	0.16393669
6	0x3e6b5c9e	0.2298455
7	0x3bda2e5c	0.0066583585
8	0xbd11f2e6	-0.035632037
9	0xbd0c7b3d	-0.034297217
10	0xbd35cc1b	-0.044384103
11	0x3d82d2b5	0.063878454
12	0x3f0c4ae3	0.5480177
13	0x3db3fb90	0.08788216
14	0xbd970a77	-0.07375043
15	0xbdbfc030	-0.09362829
16	0xbd946155	-0.07245127
17	0x3e2e6adb	0.1703295
18	0x3e41079d	0.1885056
19	0xbcea54ff	-0.028604982
20	0x3dde7331	0.10861815
21	0x3d92e0e3	0.071718
22	0x3d875a58	0.066090286
23	0x3d6bcd47	0.057568815
24	0x3ddcf370	0.107886195
25	0x3ee3bdff	0.44480893
26	0x3e9565a5	0.2917911
27	0xbdbc9cbe	-0.09209584
28	0x3ed8857f	0.4228935
29	0xbd9c3aa7	-0.076283745
30	0x3e14bd0d	0.14525242
31	0xbe20cb33	-0.15702514
32	0x3e40bfe0	0.18823195
33	0x3edc6620	0.43046665
34	0x3dd79fa1	0.10528494
35	0x3f2f3ebb	0.68455094
36	0x3e2630a6	0.16229495
37	0x3d487a2d	0.04894464
38	0x3dfae4ac	0.12250647
39	0x3dbee9fc	0.09321973
40	0xbdd0d39c	-0.10196611
41	0x3e386b24	0.18009621
42	0xbceb72eb	-0.02874132
43	0x3ea215fb	0.31657395
44	0x3e21271b	0.15737574
45	0xbd22ece6	-0.039776705
46	0x3e68d68f	0.22738098
47	0xbd85db27	-0.065359406
48	0x3e537e4b	0.20653646
49	0xbbb542b7	-0.0055316347
50	0x3d9b5480	0.075844765
51	0x3eb5014a	0.35352546
52	0x3f016da2	0.5055791
53	0x3d3a173d	0.045432318
54	0x3d8f3284	0.06992057
55	0x3cb6a688	0.022296205
56	0xbd8ca336	-0.068670675
57	0xbe27ee5d	-0.16399522
58	0xbdd21a37	-0.10258906
59	0x3ea88c83	0.32919702
60	0x3e320ddd	0.17388101
61	0xb9cfbdeb	-0.00039623617
62	0xbd2fc4c4	-0.04291226
63	0x3e3c3a7d	0.18381687
64	0xbd2ad09c	-0.04170285
65	0xbe1812c0	-0.14850903
66	0xbbf904cb	-0.0075994483
67	0xbdfd5979	-0.12370581
68	0xbded8939	-0.11598439
69	0x3d5d263c	0.05399154
70	0x3decbe83	0.11559775
71	0x3c8802d7	0.016602917
72	0x3d34eb86	0.044169925
73	0xbc629de1	-0.013831587
74	0xbdc235e2	-0.094829336
75	0x3d2adf54	0.04171689
76	0x3d9b9db6	0.0759844
77	0x3d96bf0a	0.073606566
78	0xbd9a4833	-0.07533302
79	0xbe2551b2	-0.16144446
80	0x3dbe46db	0.09290858
81	0x3df76fab	0.12081846
82	0xbc554796	-0.013017556
83	0xbe313386	-0.17304811
84	0x3d117c93	0.035519194
85	0x3d9a5672	0.075360194
86	0xbdad83c2	-0.084723964
87	0x3ddea023	0.108703874
88	0x3e25d01e	0.16192672
89	0x3e84de0a	0.25950652
90	0x3d451c78	0.048122853
91	0xbe22f7a2	-0.15914777
92	0x3e28c05f	0.16479634
93	0x3d6aa934	0.05729027
94	0xbd00d09e	-0.031448953
95	0xbe1d4683	-0.1535893
96	0x3e676489	0.22596945
97	0xbe0db729	-0.13839401
98	0x3e61bb50	0.2204411
99	0x3d197ad6	0.03747066
100	0x3dd43eb5	0.10363523
101	0x3db43e5d	0.08800957
102	0x3dde4245	0.10852484
103	0xbc813fee	-0.015777554
104	0x3c006284	0.007835988
105	0x3df6da1a	0.12053318
106	0xbde4e281	-0.11176015
107	0x3e3172a9	0.17328896
108	0x3d9876f1	0.07444561
109	0xb9227479	-0.00015492913
110	0x3dfa745c	0.12229225
111	0xbd265e5e	-0.04061734
112	0x3d2db45a	0.042408325
113	0xbc78d8f4	-0.015188444
114	0x3d26f2e4	0.040758982
115	0x3d524bb3	0.051341724
116	0x3eb12a20	0.3460245
117	0x3da4204f	0.08013975
118	0xbc9e4619	-0.019320535
119	0x3e1db634	0.15401536
120	0x3d1fe582	0.039037235
121	0xbc8cc941	-0.01718581
122	0x3d01a888	0.031654865
123	0x3e4307e3	0.19045977
124	0xbe53d9fd	-0.20688625
125	0xbdf499c6	-0.119433925
126	0xbdc21a7a	-0.09477706
127	0xbdb02cab	-0.0860227
128	0xbe0d515c	-0.13800567
129	0xbd5adb6f	-0.053431924
130	0x3e623b7b	0.22093002
131	0xbe6cabab	-0.23112361
132	0xbcc0a626	-0.023516726
133	0xbe49300c	-0.19647235
134	0xbe4f2088	-0.20227253
135	0xbc84338a	-0.016137857
136	0xbb9a4bd5	-0.004708747
137	0x3e49222b	0.1964194
138	0xbb0a5dd8	-0.0021113064
139	0xbe903891	-0.28168157
140	0x3ef980fa	0.48731214
141	0x3cb1561d	0.021647507
142	0xbdc0a9af	-0.094073646
143	0xbe0fb9a1	-0.14035656
144	0xbd55ad92	-0.052167483
145	0x3dfc3bab	0.12316068
146	0x3dd284f1	0.10279263
147	0x3e1e04a8	0.15431464
148	0x3dc2fddd	0.09521077
149	0x3d9411d3	0.07229962
150	0x3e75eca7	0.24016057
151	0x3e1b17f8	0.15145862
152	0xbe49743c	-0.19673246
153	0xbe2a15e3	-0.16609912
154	0xbe0f1eba	-0.13976565
155	0xbbbe1206	-0.0058004884
156	0xbde91daf	-0.11382615
157	0xbe604232	-0.21900252
158	0xbced90c8	-0.028999701
159	0xbc2eb349	-0.010662862
160	0xbe14bbc5	-0.14524753
161	0x3ec20d56	0.379008
162	0x3e8ae9cd	0.271315
163	0x3eef217c	0.46705234
164	0x3e72700f	0.2367556
165	0x3d9b4809	0.07582099
166	0xbe31d092	-0.1736472
167	0xbaef1626	-0.0018240854
168	0x3e0473a4	0.12934738
169	0x3e91119e	0.28333753
170	0x3dae41bd	0.08508632
171	0xbe9d6f0e	-0.3074879
172	0xbe6a1f95	-0.2286361
173	0x3d69f6e8	0.057120234
174	0xbe16ac5f	-0.14714192
175	0xbdff0c48	-0.12453514
176	0xbd806167	-0.06268578
177	0xbdedbafa	-0.116079286
178	0x3e1b500a	0.15167251
179	0x3e91e235	0.28492895
180	0xbe7aeb46	-0.24503812
181	0xbe4a6940	-0.19766712
182	0x3dd06a8f	0.101765744
183	0x3c73ff3c	0.014892396
184	0xbd3aac83	-0.045574676
185	0xbda1af24	-0.078947335
186	0xbddd553a	-0.10807271
187	0x3e4fa8dc	0.20279258
188	0xbe97970f	-0.29607436
189	0x3e08ef61	0.13372566
190	0xbd1b5bfa	-0.037929513
191	0xbe7f1a7b	-0.24912445
192	0xbe2f8e2f	-0.17144082
193	0xbe8c5775	-0.27410474
194	0x3ebc1d3e	0.3674106
195	0x3e07a9d3	0.13248377
196	0xbe84b219	-0.25917128
197	0x3e816037	0.2526872
198	0x3ecda60d	0.4016575
199	0xbd13f9c3	-0.036126863
200	0x3d6a2077	0.057159867
201	0xbd5763e6	-0.052585505
202	0xbd0fa848	-0.035072595
203	0x3de30b7c	0.11086175
204	0x3ed618d5	0.4181582
205	0x3d5f6ff0	0.05455011
206	0xbe2737a2	-0.16329816
207	0xbe7f110b	-0.24908845
208	0x3d9e5a39	0.07732052
209	0x3e174a6c	0.14774483
210	0x3e8aebd3	0.27133045
211	0xbdeb1256	-0.11478107
212	0x3e695388	0.22785771
213	0x3e333e13	0.17504148
214	0x3e30a7a8	0.17251456
215	0x3e3124cd	0.17299195
216	0x3e8b7797	0.27239677
217	0x3e9ceb04	0.30648053
218	0x3d79739e	0.060901277
219	0xbe36d82d	-0.17855902
220	0x3ee8bae9	0.454551
221	0x3db191dd	0.08670399
222	0x3d0614fd	0.03273486
223	0xbe73d598	-0.23811948
224	0x3e04ee9c	0.12981647
225	0x3e8166b4	0.2527367
226	0x3dd81bbb	0.10552164
227	0x3f32c377	0.69829506
228	0x3e6a3f96	0.22875819
229	0xbe334adf	-0.1750903
230	0x3e90f59e	0.2831239
231	0x3cb6d2ec	0.022317372
232	0xbe41f3b0	-0.18940616
233	0x3ecbf374	0.39834177
234	0xbdc71333	-0.09720459
235	0x3e05cebe	0.13067147
236	0x3cb8dc49	0.022565978
237	0xbde12f53	-0.109953545
238	0x3d6bff98	0.0576168
239	0xbe603310	-0.21894479
240	0x3e81aa25	0.25325122
241	0x3d1facc0	0.038983107
242	0x3e698d29	0.22807755
243	0x3ecbc115	0.39795747
244	0x3eff4b99	0.49862364
245	0x3e4006ed	0.18752642
246	0xbd487d9c	-0.048947915
247	0x3e04f415	0.12983735
248	0xbdea159c	-0.11429903
249	0xbcd59e6c	-0.026076518
250	0xbdbc3918	-0.09190577
251	0x3ef31317	0.47475502
252	0x3cc47b43	0.023984557
253	0xbd31922c	-0.04335229
254	0xbd7ff80f	-0.062492426
255	0x3e794d41	0.24345876

encoder.weight_hh_l0 f4 [256, 64]
0	0xb9c7ce49	-0.00038109932
1	0xbdc98aff	-0.098409645
2	0x3e3ccb34	0.18436891
3	0x3de051d6	0.10953109
4	0xbd44a0f9	-0.048005078
5	0xbdb53499	-0.08847923
6	0xbe04bd66	-0.12962875
7	0xbc0e2009	-0.00867463
8	0xbdcf489f	-0.10121273
9	0xbade44ca	-0.0016957757
10	0x3cd29948	0.025707856
11	0xbd7d2dd1	-0.061811272
12	0x3d46453c	0.04840587
13	0xbe3ec9b4	-0.18631631
14	0xbc539760	-0.012914509
15	0x3e237ee8	0.1596638
16	0xbd19ca9a	-0.03754673
17	0x3de70be7	0.11281567
18	0xbd5a1c5b	-0.053249698
19	0xbe6a09db	-0.22855322
20	0x3c001eb4	0.00781982
21	0x3de61cc1	0.11235953
22	0xbe3d2041	-0.18469335
23	0xbe0b1a2a	-0.135842
24	0xbcf48d60	-0.02985257
25	0xbdfbfb1d	-0.123037554
26	0xbe21f669	-0.15816654
27	0x3cbb5398	0.022867009
28	0xbd0b409e	-0.03399717
29	0xbdcdfda6	-0.10058145
30	0xbe27e45a	-0.16395703
31	0xbccc44cc	-0.024935149
32	0xbee1148a	-0.43960983
33	0x3d97afda	0.07406588
34	0xbda92109	-0.08258254
35	0x3c920d80	0.017828703
36	0xbd776438	-0.06039831
37	0xbe0b4f20	-0.13604403
38	0xbdca4e04	-0.098781615
39	0xbe022596	-0.1270965
40	0xbe7567ab	-0.23965327
41	0xbdb19d21	-0.08672548
42	0xbba664e7	-0.0050779465
43	0xbd3c4f6c	-0.04597418
44	0x3cd7169b	0.026255896
45	0x3e051f5d	0.13000245
46	0xbe0675b9	-0.13130845
47	0xbd85967e	-0.06522845
48	0xbeaf959c	-0.3429383
49	0xbdd57e4d	-0.104244806
50	0x3df66f5d	0.120329596
51	0x3dbd523d	0.09244201
52	0xbe4e15d5	-0.20125516
53	0xbc8da340	-0.017289758
54	0xbde85176	-0.113436624
55	0x3a744438	0.0009318027
56	0xbd85db0b	-0.0653592
57	0x3d8cbeea	0.068723515
58	0x3c355ef4	0.011070002
59	0x3e738f2a	0.23785082
60	0xbd6329a9	-0.055459652
61	0x3e09ed8a	0.1346952
62	0xbcc1e3fc	-0.023668282
63	0xbe0f10cf	-0.13971256
64	0x3dc23ba4	0.09484032
65	0x3dacc22b	0.08435472
66	0xbd94a01d	-0.07257102
67	0x3e08ed9c	0.13371891
68	0xbdaafc96	-0.08348958
69	0x3d80c0be	0.06286763
70	0x3d180a9b	0.03711949
71	0xbd544217	-0.05182084
72	0xbd23e2ea	-0.040011324
73	0xbdc189bc	-0.09450099
74	0x3d3a6d58	0.045514435
75	0x3e21bfba	0.15795794
76	0x3dad7ef7	0.08471482
77	0xbd9f99c2	-0.07792999
78	0x3d7c1d1a	0.06155119
79	0xbce07d05	-0.027403364
80	0x3e03adfb	0.12859337
81	0xbc69c87e	-0.0142689925
82	0x3cf1e04d	0.0295259
83	0xbda7c487	-0.081917815
84	0x3c2857a1	0.010274799
85	0x3c48bdbd	0.012252268
86	0xbdf11202	-0.11771013
87	0xbdeef0dc	-0.11667034
88	0xbd89b070	-0.06723106
89	0xbdf176a2	-0.117902055
90	0x3d9a9547	0.07548004
91	0xbdabb611	-0.08384336
92	0xbdb59e68	-0.08868104
93	0x3d1ec672	0.03876347
94	0x3dd1f903	0.10252573
95	0xbdf4c2e7	-0.11951237
96	0x3bb60437	0.0055547017
97	0xbdf51fb4	-0.119689375
98	0xbe08c689	-0.13356985
99	0xbe14cb3e	-0.14530656
100	0xbe095b27	-0.13413678
101	0xbdc7bd7b	-0.097529374
102	0xbd3adb51	-0.045619313
103	0xbe02fef8	-0.12792575
104	0xbda19f3b	-0.07891699
105	0xbd5d16d2	-0.05397684
106	0x3d8f0b35	0.069845594
107	0xbd4ea1f3	-0.050447416
108	0x3d90328b	0.0704089
109	0xbe147d51	-0.1450093
110	0xbcc8d111	-0.024513753
111	0x3da419bf	0.08012723
112	0xbdf81e5d	-0.12115166
113	0x3d770ef9	0.060317013
114	0x3d82583b	0.06364485
115	0xbac6e9de	-0.0015175899
116	0xbda28ea9	-0.079373665
117	0xbd00d202	-0.03145028
118	0x3da509f9	0.08058543
119	0xbd91e680	-0.071240425
120	0x3e024e54	0.12725192
121	0x3d9302c6	0.07178263
122	0xbd0633c2	-0.032764204
123	0xbd8fda01	-0.07024003
124	0x3d973444	0.07383016
125	0xbd30c0df	-0.043152686
126	0xbd485c7e	-0.048916332
127	0x3db8b360	0.09018588
128	0xba32bce6	-0.0006818309
129	0xbcdc4dcb	-0.026892563
130	0x3be861dc	0.007091744
131	0xbe1bd6b4	-0.15218621
132	0x3d9807c3	0.074233554
133	0xbd6feefb	-0.05857752
134	0xbe0b19b6	-0.13584027
135	0x3d128923	0.035775315
136	0xbd80cb88	-0.062888205
137	0xbd0ce5ba	-0.03439877
138	0x3c485e9b	0.012229587
139	0x3d5cf462	0.053944
140	0x3d5bcb6c	0.053660795
141	0x3dd81813	0.10551467
142	0x3df4c8eb	0.119523846
143	0x3d862c3c	0.06551406
144	0xbbb1b9fe	-0.0054237833
145	0xbd000583	-0.031255256
146	0x3cd235e7	0.025660468
147	0xbdd0a118	-0.10186976
148	0x3c1bea9a	0.009516383
149	0x3ca9ad06	0.020712387
150	0x3e0ce1bb	0.13757984
151	0x3da18985	0.07887558
152	0xbdf1b8e8	-0.11802846
153	0x3d390eff	0.045180317
154	0xbd97ae43	-0.07406285
155	0xbdee12f8	-0.11624712
156	0x3dcd603d	0.100281216
157	0xbdea717b	-0.11447426
158	0x3d4ea016	0.05044564
159	0x3d862b6e	0.06551252
160	0x3cbbf2ed	0.022942984
161	0xbd046eca	-0.03233222
162	0x3db31a22	0.08745219
163	0x3e6155e9	0.22005428
164	0x3c1c361c	0.009534385
165	0x3c2d6d1e	0.010585098
166	0x3d32b579	0.043630097
167	0x3df038c6	0.11729579
168	0xbd9f568d	-0.0778018
169	0xbd6e520d	-0.05818372
170	0x3d8d5c4f	0.06902372
171	0x3ceface2	0.029257242
172	0xbd52680e	-0.051368766
173	0x3dd9913d	0.10623405
174	0xbd1e28bf	-0.038613077
175	0x3dff220f	0.12457668
176	0x3dbc1d73	0.091853045
177	0x3d52dc04	0.051479355
178	0xbd965b65	-0.07341651
179	0x3dea3b53	0.114370964
180	0xbe450ab8	-0.1924237
181	0xbd218bcf	-0.039439972
182	0xbcdbf1ca	-0.026848692
183	0x3c002999	0.007822418
184	0x3d72d6f6	0.059287034
185	0x3d89b1a4	0.067233354
186	0xbe0d766f	-0.1381471
187	0xbc66729e	-0.014065413
188	0xbd582a97	-0.05277499
189	0xbdbea61c	-0.093090266
190	0x3da5d867	0.08097916
191	0xbe195f88	-0.14977849
192	0x3cd15ab4	0.025555946
193	0xbd847996	-0.06468503
194	0x3d4b9c74	0.049709752
195	0x3dfaa873	0.122391604
196	0x3c2b57eb	0.010457973
197	0xbdce1d18	-0.10064143
198	0x3d623570	0.055226743
199	0xbd0b714a	-0.034043588
200	0x3decb70a	0.115583494
201	0xbdada49d	-0.08478663
202	0xbda0f8b6	-0.07859938
203	0xbd878327	-0.06616812
204	0xbce9a9cb	-0.028523346
205	0xbe3a9025	-0.1821905
206	0xbc287ac3	-0.010283175
207	0x3c61f89d	0.013792184
208	0xbe2b08ac	-0.16702527
209	0x3d41f305	0.047350902
210	0x3deea38e	0.11652289
211	0xbe1c95ab	-0.15291469
212	0xbba69b41	-0.0050844257
213	0x3dadb674	0.08482066
214	0xbd8bb10a	-0.06820877
215	0xbdfb862e	-0.12281452
216	0x3d568634	0.05237408
217	0x3c698824	0.01425365
218	0xbd3a24a3	-0.045445096
219	0x3c63edbb	0.01391166
220	0xbd92ce9a	-0.07168312
221	0x3da6bce6	0.08141498
222	0xbd8005bc	-0.06251094
223	0x3d4f33f1	0.050586645
224	0xbe5da93c	-0.21646589
225	0x3ddf4bdc	0.10903141
226	0x3dc1d2c2	0.09464027
227	0x3e0a5add	0.13511224
228	0x3da0a655	0.07844225
229	0xbe52371f	-0.2052884
230	0xbd9b0770	-0.07569778
231	0xbd8a7cb6	-0.06762068
232	0xbe85bfbb	-0.2612284
233	0x3decb937	0.115587644
234	0x3d8ab2b4	0.06772366
235	0xbdbb1e4c	-0.09136638
236	0x3c28227a	0.010262126
237	0x3e38699c	0.18009037
238	0x3d5f523f	0.054521795
239	0xbde27bdc	-0.110587806
240	0xbc5a6769	-0.013330319
241	0x3cde7100	0.027153492
242	0x3cb20a36	0.021733385
243	0xbd48b9e2	-0.049005397
244	0xbe0e55d8	-0.13899934
245	0xbd911876	-0.07084744
246	0xbd966a2f	-0.07344472
247	0x3bcf2ef9	0.0063227382
248	0x3d228046	0.039673112
249	0x3d98fce1	0.07470108
250	0xbda7d7a3	-0.08195426
251	0x3bef99f5	0.0073120543
252	0x3db7b8d2	0.089707986
253	0x3db792bf	0.089635365
254	0xbd1f2b61	-0.03885973
255	0xbea14344	-0.31496632

encoder.bias_ih_l0 f4 [256]
0	0x3de9de9a	0.11419411
1	0xbdfaca60	-0.12245631
2	0x3d3ba9e5	0.04581632
3	0x3e4ede48	0.20201981
4	0x3d2e99f5	0.042627294
5	0x3db1d07c	0.08682343
6	0x3df37bb7	0.11888831
7	0x3d020e7a	0.031752087
8	0xbd971072	-0.073761836
9	0x3de3f633	0.11130943
10	0xbda8153b	-0.082071744
11	0x3e8c5cce	0.27414554
12	0x3e9008e9	0.28131798
13	0x3d309b92	0.043117113
14	0xb9b6ca46	-0.0003486445
15	0x3d8e2c9d	0.06942103
16	0xbd520b0d	-0.05128007
17	0x3d6cd1ab	0.057817142
18	0x3df7bf40	0.12097025
19	0xbcf199df	-0.029492317
20	0xbcba5b93	-0.022748744
21	0x3c932530	0.017962068
22	0x3e8780ec	0.26465547
23	0xbccefc63	-0.025266832
24	0x3dd14283	0.10217764
25	0x3e790425	0.24317987
26	0x3c98214d	0.018570567
27	0x3d3cc01b	0.046081644
28	0x3d5047ba	0.050849654
29	0x3d928d67	0.071558766
30	0x3d7d20ee	0.061798982
31	0x3d9f46b4	0.077771574
32	0x3e996c21	0.29965308
33	0x3e7ef1d7	0.24896942
34	0x3bba7dbb	0.005691258
35	0x3f2acb2b	0.6671626
36	0x3e22dc9a	0.15904465
37	0xbd97371e	-0.0738356
38	0x3e17b40e	0.14814779
39	0x3c41e2cd	0.011833859
40	0x3ddd429e	0.10803722
41	0x3e499684	0.19686323
42	0x3cf7c2dc	0.030244283
43	0x3e4ffd98	0.20311582
44	0x3dd92740	0.106031895
45	0xbd9d555b	-0.07682296
46	0x3d709c4c	0.058742806
47	0x3ddb5652	0.10709824
48	0x3dda7db9	0.10668511
49	0x3dd8394a	0.10557802
50	0x3dce83e8	0.10083753
51	0x3e404f93	0.18780355
52	0x3e557540	0.20845509
53	0xbcc26ce5	-0.023733566
54	0x3c135696	0.008992812
55	0x3db85997	0.09001463
56	0xbd937244	-0.07199529
57	0x3d463dbc	0.04839872
58	0x3b449489	0.002999576
59	0x3de9cfbc	0.11416575
60	0x3e00fa85	0.12595566
61	0x3db85d7a	0.09002204
62	0xbc9685a7	-0.018374277
63	0x3e5e1c36	0.21690449
64	0xbdd13c9b	-0.10216638
65	0x3dc73b56	0.09728114
66	0xbde3759a	-0.11106415
67	0x3ce8a1f6	0.028397541
68	0xbb19c594	-0.0023463713
69	0x3db80902	0.08986093
70	0x3cd68607	0.026186956
71	0xbe0f5692	-0.13997868
72	0x3cfe4539	0.031038867
73	0xbd6195e1	-0.055074576
74	0xbd79118b	-0.060807746
75	0xbcf19e13	-0.029494321
76	0x3d99a4b3	0.07502117
77	0x3d4bf71d	0.049796212
78	0xbd297411	-0.041370455
79	0x3d7bb1be	0.061448805
80	0x3d9fd0f4	0.078035265
81	0xbd746d0b	-0.059674304
82	0xbd690d00	-0.056897163
83	0xbdda1f9d	-0.10650561
84	0x3cffb804	0.031215675
85	0xba6ba2cc	-0.0008988797
86	0x3e2642da	0.1623644
87	0x3d0c3c2b	0.03423707
88	0x3d943cac	0.07238135
89	0xbd23f474	-0.04002805
90	0xbc75808a	-0.014984259
91	0xbdd20006	-0.10253911
92	0xbd992466	-0.074776456
93	0x3b1f093f	0.0024266986
94	0xbd617413	-0.055042338
95	0x3dd12872	0.102127925
96	0x3df048c8	0.11732632
97	0xbc9ebf37	-0.019378288
98	0xbc73ce6d	-0.014880759
99	0xbe0caca2	-0.13737729
100	0x3bf5b7ad	0.0074987025
101	0x3c959ce0	0.01826328
102	0xbdf012e6	-0.117223546
103	0x3da7032a	0.081549
104	0x3c8b456e	0.01700088
105	0x3d69a0da	0.057038166
106	0xbdb9c5ce	-0.090709314
107	0x3db7a337	0.08966678
108	0x3da495b5	0.08036367
109	0x3d1a6da4	0.037702218
110	0xbd44ec87	-0.048077133
111	0xbd942b88	-0.072348654
112	0x3c184b93	0.009295362
113	0xbda86882	-0.08223058
114	0xbcd27dbc	-0.02569472
115	0xbd51923b	-0.051164847
116	0x3d232bba	0.039836623
117	0x3ccf4932	0.025303457
118	0xbb251f5a	-0.002519569
119	0xbd200488	-0.03906682
120	0xbca35df6	-0.019942265
121	0x3c8dc40e	0.0173054
122	0x3ce0f4b1	0.027460428
123	0xbdf1ace3	-0.11800554
124	0x3dee48ca	0.11634977
125	0xbd0814aa	-0.03322283
126	0xbdb8c5f9	-0.09022135
127	0x3d48cea1	0.04902518
128	0x3c9e2b8e	0.019307878
129	0x3d6e166c	0.058126852
130	0xbdb46c43	-0.08809712
131	0xbe1d9ba7	-0.15391408
132	0xbc5f3a95	-0.013624807
133	0x3ca8bd4c	0.020598076
134	0xbe520468	-0.20509493
135	0xbc8aadac	-0.016928516
136	0x3ab6f814	0.0013959431
137	0x3b2e44e7	0.0026591362
138	0xbe033c89	-0.12816061
139	0x3d24adaa	0.04020468
140	0x3e2c7488	0.16841328
141	0xbd61baa3	-0.05510963
142	0x3da9cfe7	0.08291607
143	0x3dbda5b2	0.092601195
144	0xbdb69af3	-0.08916273
145	0x3d04a1e3	0.03238095
146	0x3c7bf6de	0.015378682
147	0xbc384161	-0.011246056
148	0xbd9cb7b8	-0.07652229
149	0x3dc99c12	0.09844221
150	0x3cab78c3	0.020931607
151	0x3c8c6d12	0.017141853
152	0xbe04f90f	-0.12985633
153	0xbda81eed	-0.082090236
154	0xbad8d947	-0.0016544246
155	0xbd792b53	-0.060832333
156	0xbcd2386b	-0.025661668
157	0xbd28878e	-0.0411449
158	0xbc291c18	-0.0103216395
159	0xbdd1fba7	-0.10253077
160	0xbe70ab30	-0.23502803
161	0xbc9fbbe2	-0.01949877
162	0xbcda45c1	-0.02664459
163	0xbd9da0c2	-0.07696678
164	0xbaa7c6d8	-0.0012800349
165	0xbd9e85d1	-0.07740367
166	0x3dbe7c25	0.093010224
167	0xbdea6327	-0.11444693
168	0xbd99352e	-0.07480846
169	0x3cce2024	0.02516181
170	0xbd0993cb	-0.033588212
171	0xbd1b5901	-0.037926678
172	0xbd986b15	-0.07442299
173	0xbce47ef6	-0.027892571
174	0x3cdfb3af	0.02730736
175	0x3dac72eb	0.08420356
176	0xbe079a2e	-0.13242409
177	0x3cf1f044	0.029533513
178	0xbda0e0fd	-0.07855413
179	0x3db619f3	0.08891668
180	0xbdbc66cd	-0.09199295
181	0x3c8f4967	0.017491056
182	0xbd7db2e9	-0.0619382
183	0x3b47c0a8	0.0030479822
184	0xbd86c992	-0.06581415
185	0x3dc45f22	0.09588458
186	0xbcf0261a	-0.029315043
187	0x3e1d3de3	0.15355639
188	0x3c7aeb6e	0.01531492
189	0x3d08f6c4	0.03343846
190	0x3b7a800e	0.00382233
191	0x3cace64a	0.021105904
192	0xbdbb8951	-0.091570504
193	0xbdb3c2ff	-0.08777427
194	0x3d7ac670	0.0612244
195	0x3e3a97f6	0.18222031
196	0xbd805858	-0.0626685
197	0x3e0339e6	0.12815055
198	0x3e75b724	0.23995644
199	0x3d06e5ff	0.032934185
200	0xbda11dfb	-0.078670464
201	0x3dc33cce	0.09533082
202	0xbdb62e74	-0.08895579
203	0x3e89869b	0.26860508
204	0x3e8ec296	0.27882832
205	0x3c2c8be4	0.010531399
206	0x3d3ea93e	0.04654812
207	0x3e3016e9	0.1719624
208	0xbdadfb1c	-0.08495161
209	0x3df88a2e	0.12135731
210	0x3dcce656	0.100048706
211	0x3d975a2c	0.07390246
212	0x3ccb24b4	0.024797775
213	0x3d17c9e6	0.03705778
214	0x3d7710a3	0.0603186
215	0x3c8bd239	0.017068015
216	0x3cd48524	0.025942393
217	0x3e63e02e	0.22253487
218	0x3e095990	0.13413072
219	0xbde5d066	-0.112213895
220	0xbd75b2c8	-0.059984952
221	0x3d162cbe	0.036663763
222	0x3dd81264	0.10550383
223	0xbd658b79	-0.056041215
224	0x3e262351	0.1622441
225	0x3ebe615b	0.3718365
226	0x3c499fbb	0.012306149
227	0x3f2def31	0.679431
228	0x3df6a7a6	0.12043695
229	0xbdc67809	-0.09690864
230	0x3dcee135	0.101015486
231	0x3da8ee53	0.08248582
232	0x3e1d9bff	0.15391539
233	0x3e24b7cb	0.16085736
234	0x3d900b40	0.07033396
235	0x3e0801df	0.13281964
236	0xbd09b02a	-0.03361527
237	0xbdf7b705	-0.12095455
238	0x3ca3b650	0.019984394
239	0x3d5cf2f3	0.053942632
240	0x3daba709	0.08381469
241	0x3df8ed7c	0.121546715
242	0x3d87c34f	0.06629049
243	0x3d8fa5a4	0.07014015
244	0x3e8bc737	0.27300426
245	0x3d7ccaa3	0.061716687
246	0x3de4569b	0.11149331
247	0xbe0a0b2c	-0.13480824
248	0x3dca3ce0	0.09874892
249	0x3da3030c	0.079595655
250	0x3dd91106	0.1059895
251	0x3d598740	0.0531075
252	0x3e4dd316	0.20100054
253	0xbdc26ca6	-0.09493379
254	0xbdd7fe55	-0.10546557
255	0x3dc90f0f	0.09817325

encoder.bias_hh_l0 f4 [256]
0	0xbdacc763	-0.084364675
1	0xbda53c1b	-0.08068105
2	0x3e1c693a	0.15274516
3	0x3e59d5dd	0.21272989
4	0x3d39b059	0.045334194
5	0x3e16471c	0.14675564
6	0x3daf3a43	0.085560344
7	0x3bcedff1	0.006313317
8	0xbdf4ec22	-0.11959101
9	0x3e1cccd8	0.15312517
10	0xbcb5322f	-0.022118656
11	0x3e4bd294	0.19904548
12	0x3ebfba18	0.37446666
13	0xbd61cbca	-0.05512599
14	0x3d7bffce	0.06152325
15	0x3be958fe	0.0071212044
16	0x3db24e6a	0.087063625
17	0x3d10773f	0.035269972
18	0x3c1bfe42	0.009521069
19	0xbd0d2c85	-0.034466285
20	0xbdc05523	-0.093912385
21	0x3e1cfbfe	0.15330502
22	0x3e6a0d09	0.22856535
23	0x3de212df	0.110387556
24	0x3e0b2b40	0.13590717
25	0x3dfe8ff5	0.124298014
26	0xbd00e6c8	-0.03147009
27	0xbd964666	-0.07337646
28	0x3ccb73d7	0.02483551
29	0xbd22a7d6	-0.039710842
30	0xbc8d8d5a	-0.017279316
31	0xbc5176b8	-0.012784652
32	0x3df0c6bb	0.11756655
33	0x3e4f608f	0.20251678
34	0x3d023f03	0.031798374
35	0x3f20d24f	0.62820905
36	0x3d17f96f	0.037103113
37	0xbd2fb377	-0.04289576
38	0x3e09dac6	0.13462362
39	0x3da59314	0.080846936
40	0x3e22bd0d	0.1589243
41	0x3e672fc0	0.22576809
42	0xbe05f9e0	-0.13083601
43	0xbcd7c188	-0.0263374
44	0x3d15ac8e	0.036541514
45	0x3d13fe5a	0.03613124
46	0x3d9429f2	0.07234563
47	0xbd9fe56c	-0.078074306
48	0x3e008c14	0.12553436
49	0x3d54e3a7	0.05197492
50	0x3e21dde0	0.15807295
51	0x3dc1ee10	0.09469235
52	0x3e1b64f2	0.15175226
53	0xbbd43395	-0.0064758756
54	0x3d5a21a5	0.053254742
55	0xbda0414e	-0.07824956
56	0xbc0424b7	-0.008065394
57	0xbdddfe07	-0.108394675
58	0xbc94168c	-0.018077157
59	0x3e0d824f	0.1381924
60	0x3d90d053	0.07070985
61	0x3d369b67	0.044581797
62	0xbdf44af8	-0.11928362
63	0x3e2a24f2	0.16615656
64	0xbd81ecd0	-0.063439965
65	0x3c392dfa	0.011302466
66	0xbdbcdad2	-0.09221424
67	0xbc6cd287	-0.0144544905
68	0xbc638dba	-0.013888771
69	0xbdf4a18e	-0.119448766
70	0x3d40fbdf	0.047115203
71	0x3d5136ba	0.051077582
72	0x3dbf23e4	0.093330175
73	0x3dbf781b	0.0934908
74	0xbdb110e6	-0.08645801
75	0x3e014091	0.12622286
76	0xbd2ea117	-0.042634096
77	0xbe269d79	-0.16271009
78	0x3ce94f8c	0.028480314
79	0x3969b959	0.00022289659
80	0x3db85d98	0.090022266
81	0xbda2385c	-0.07920906
82	0x3d87f305	0.06638149
83	0x3c7c6ab9	0.015406304
84	0xbde98879	-0.11402983
85	0x3d56e4c1	0.05246425
86	0x3e238cd6	0.15971693
87	0xbcdbf781	-0.026851417
88	0xbc1ab0db	-0.00944158
89	0xbe0b6cc5	-0.13615711
90	0xbd8d96a3	-0.06913497
91	0x3d91d4ea	0.07120688
92	0xbdd842a8	-0.10559589
93	0xbd26d256	-0.040727936
94	0xbd81112a	-0.06302102
95	0x3dc129f0	0.09431827
96	0xbd3e417a	-0.046449162
97	0xbd3221d1	-0.04348928
98	0x3cb0fd30	0.021605104
99	0xbdb6771d	-0.08909438
100	0x3da54e57	0.08071583
101	0xbbac5f7a	-0.005260405
102	0xbdde0b84	-0.1084204
103	0x3d8311a8	0.06399852
104	0x3df1a314	0.11798683
105	0x3c72671f	0.014795094
106	0xbde60600	-0.11231613
107	0xbd437fa3	-0.047729146
108	0x3d6478e4	0.055779353
109	0xbd33c97e	-0.04389333
110	0x3d779f55	0.060454685
111	0xbd4235cd	-0.04741459
112	0xbd612b6d	-0.054973055
113	0xbdd8d5c4	-0.105876476
114	0x3dda40cd	0.10656891
115	0xbdcea824	-0.10090664
116	0x3d67d5d8	0.05660042
117	0xbe008898	-0.12552106
118	0xbd952bd0	-0.07283747
119	0x3c87cabf	0.016576169
120	0xbda05cc4	-0.07830194
121	0xbdac2501	-0.084054954
122	0x3d3c4a51	0.04596931
123	0xbdd75059	-0.10513372
124	0x3d43a8ba	0.047768332
125	0x3cbde128	0.023178652
126	0x3d961cb1	0.07329691
127	0xbd9f7dd8	-0.07787675
128	0x3dc47e8d	0.0959445
129	0x3dbf66d4	0.09345785
130	0x3e00df8f	0.12585281
131	0xbd73f001	-0.059555057
132	0x3dc29014	0.09500137
133	0xbdc1d6a6	-0.09464769
134	0xbdaae3bf	-0.0834422
135	0xbd0c2418	-0.03421411
136	0xbde7092e	-0.11281048
137	0xbd0d87dc	-0.034553394
138	0xbdc2746f	-0.09494864
139	0x3c82ae62	0.015952293
140	0x3db8de1d	0.0902674
141	0xbd05b6c1	-0.03264499
142	0x3c5b447c	0.013383027
143	0xbbc95ed1	-0.006145336
144	0xbbf7ee06	-0.0075662164
145	0x3d5317f7	0.051536527
146	0x3da703f7	0.08155053
147	0xbda65895	-0.081223644
148	0x3ddd0fac	0.10794005
149	0x3d8dc6f4	0.06922713
150	0xbd14d37a	-0.036334492
151	0xbce8995e	-0.028393444
152	0xbdbce590	-0.09223473
153	0xbe21d48b	-0.15803735
154	0xbd63dd77	-0.055631127
155	0xbdcb04a9	-0.09912998
156	0xbd1bd428	-0.038044125
157	0x3cc804cb	0.024416348
158	0xbe18622f	-0.14881204
159	0xbda63d73	-0.08117189
160	0xbe1dfc66	-0.15428314
161	0xbd32e796	-0.04367789
162	0x3e05a75e	0.13052127
163	0xbd7a6eb5	-0.061140735
164	0x3e05e1e9	0.13074459
165	0x3d0f3b66	0.034968756
166	0xbdd09da7	-0.1018632
167	0xbd1f08be	-0.038826697
168	0x3d11db83	0.035609733
169	0xbd2e87c6	-0.042609952
170	0xbc1c4f85	-0.009540443
171	0xbe08a7ba	-0.13345233
172	0xbe04c75f	-0.12966679
173	0xbdaaad64	-0.08333853
174	0xbccef361	-0.025262536
175	0x3d8d12f9	0.06888384
176	0xbd6a1de2	-0.057157405
177	0xbd5ec15c	-0.05438362
178	0x3e0ae6fa	0.13564673
179	0xbd1be389	-0.03805879
180	0x3d323224	0.04350485
181	0x3d0db0cb	0.03459243
182	0x3d2c5489	0.042072807
183	0xbde42a17	-0.111408405
184	0x3d5e2b7f	0.0542407
185	0x3d06c5c4	0.032903448
186	0x3e1b26e0	0.15151548
187	0xbc5899fb	-0.013220306
188	0x3dc8678c	0.09785375
189	0xbd9775fd	-0.07395551
190	0x3d9088ab	0.07057317
191	0xbc831dad	-0.016005361
192	0x3d8d2165	0.06891135
193	0xbc387318	-0.011257909
194	0x3d898c52	0.06716217
195	0x3dc15c3a	0.09441419
196	0xbe01d849	-0.12680162
197	0x3e1e64da	0.1546816
198	0x3e7467b4	0.23867685
199	0xbdae3e1e	-0.08507942
200	0xbd476be4	-0.048686877
201	0x3e39b379	0.1813487
202	0x3db166da	0.086621955
203	0x3ddd2e0e	0.107998
204	0x3e9db008	0.30798364
205	0xbdab1e4f	-0.0835539
206	0xbdb8a5d6	-0.09016006
207	0x3d1104c0	0.03540492
208	0x3d5c5453	0.053791355
209	0xbd6a7aa2	-0.057245858
210	0x3d5fd973	0.054650735
211	0xbd08f0de	-0.033432834
212	0xbcab9bbc	-0.020948283
213	0x3d31f080	0.04344225
214	0x3dd1319e	0.10214542
215	0xbcb77234	-0.022393323
216	0x3cb6c3ce	0.022310164
217	0x3e6c78d6	0.2309297
218	0x3df86cc7	0.12130123
219	0xbdb95c0c	-0.0905076
220	0x3dca25aa	0.09870465
221	0x3e14b8b8	0.1452359
222	0x3c847605	0.016169557
223	0x3d7db487	0.061939742
224	0x3dff7d6f	0.124750964
225	0x3e87f091	0.26550725
226	0x3e3fba42	0.18723395
227	0x3f21f79a	0.63268435
228	0x3da41269	0.08011324
229	0x3d5a065d	0.053228725
230	0xbd20673f	-0.039160963
231	0xbc65057b	-0.013978357
232	0x3d6059c2	0.0547731
233	0x3e6fcf93	0.23419027
234	0xbd9a19f8	-0.075244844
235	0xbbfa88e1	-0.007645712
236	0x3cff7928	0.031185701
237	0x3d26ffe7	0.04077139
238	0xbd9ee444	-0.07758382
239	0xbd203a2b	-0.039117973
240	0x3e750b75	0.23930152
241	0xbd3247c2	-0.043525465
242	0xbcbf663b	-0.023364177
243	0x3dbc8edd	0.092069365
244	0x3e31682f	0.17324899
245	0xbb458e74	-0.0030144723
246	0x3cd06678	0.025439486
247	0x3d75f111	0.060044352
248	0xbe06d1e9	-0.13166012
249	0x3ccfeb87	0.025380863
250	0xbd30cd46	-0.043164514
251	0x3dd20d11	0.102563985
252	0x3e4451fb	0.19171898
253	0x3d760400	0.06006241
254	0xbd8245c4	-0.06360963
255	0x3d086cec	0.033307

decoder.weight_ih_l0 f4 [4, 64]
0	0xbf7c814c	-0.9863479
1	0xbf28f550	-0.6599932
2	0xbf3a864c	-0.7286117
3	0xbf87455d	-1.0568043
4	0x3f819c3d	1.0125805
5	0xbef3055d	-0.4746503
6	0xbf4017e2	-0.7503644
7	0x3e0f93d9	0.14021243
8	0xbe143063	-0.14471583
9	0x3f52df70	0.8237219
10	0x3e9802f4	0.29689753
11	0xbf71902a	-0.943606
12	0x3f16ebd6	0.5895361
13	0x3d50ba22	0.05095876
14	0xbe52b462	-0.20576623
15	0xbf0cadb6	-0.5495256
16	0x3f59fc09	0.851502
17	0x3de2e709	0.11079223
18	0x3e9ea585	0.30985656
19	0x3f82a30b	1.0206007
20	0xbeb35553	-0.35026035
21	0x3d4294f8	0.04750535
22	0x3df42f79	0.11923117
23	0x3f89a5fa	1.0753777
24	0xbefbba58	-0.49165606
25	0xbf454508	-0.7705846
26	0x3bbe091f	0.005799427
27	0xbed04dfa	-0.4068449
28	0xbf754bbd	-0.9581869
29	0xbede6786	-0.43438357
30	0xbdb60d52	-0.088892594
31	0xbf31e980	-0.6949692
32	0xbf09a0c4	-0.53760934
33	0x3f939a8d	1.153154
34	0xbea0a2ed	-0.31374303
35	0x3f91e2da	1.1397355
36	0xbdae3aed	-0.08507333
37	0x3f46a9e3	0.77602977
38	0x3ddc3316	0.10751931
39	0xbf1f7c6d	-0.62299234
40	0xbe27c051	-0.16381957
41	0x3f9186a9	1.136922
42	0xbef27ed1	-0.47362378
43	0xbf806dc8	-1.0033503
44	0xbf6e834f	-0.9316911
45	0xbb882dde	-0.0041558584
46	0x3e68b811	0.22726466
47	0xbf170d90	-0.5900507
48	0x3ce32e07	0.027731908
49	0x3f3002b3	0.6875412
50	0xbdf85147	-0.121248774
51	0x3f1ed6c7	0.62046474
52	0xbf69b50d	-0.91291887
53	0xbe4fd6e1	-0.20296814
54	0x3f465c36	0.7748445
55	0x3f31bb1f	0.6942615
56	0x3f0ba710	0.5455179
57	0xbf37535a	-0.7161156
58	0x3f108ff5	0.5646966
59	0x3f5873ef	0.845519
60	0x3de9898d	0.11403189
61	0x3e4e7168	0.20160449
62	0xbf1c5940	-0.61073685
63	0xbf2b4907	-0.66908306
64	0x3bd805da	0.0065924944
65	0xbefd6820	-0.49493504
66	0xbec24249	-0.37941197
67	0x3f211bb1	0.6293288
68	0xbf260d58	-0.6486411
69	0x3ea37139	0.3192232
70	0x3f406e05	0.75167876
71	0xbde6059b	-0.11231538
72	0xbefa280c	-0.48858678
73	0xbee30cb0	-0.44345617
74	0x3e0ffaef	0.14060567
75	0xbf193382	-0.5984422
76	0xbf323e9a	-0.6962677
77	0x3ece15e1	0.40251067
78	0xbea8b399	-0.32949522
79	0xbf190d80	-0.59786224
80	0xbf1c11e7	-0.60964817
81	0xbf68d80a	-0.9095465
82	0x3f743841	0.95398337
83	0x3e7f391b	0.24924128
84	0x3f526ff7	0.82202095
85	0x3ea2b742	0.3178044
86	0x3f894d0a	1.0726635
87	0x3f7077e0	0.93932915
88	0x3f6a394e	0.9149369
89	0x3f2bbe94	0.67087674
90	0x3f4341f5	0.7627252
91	0x3f0978eb	0.5370013
92	0xbf4cefd9	-0.8005348
93	0xbf730d9e	-0.94942653
94	0x3f345469	0.704413
95	0x3f1d9b14	0.61564755
96	0x3efa3ec4	0.4887601
97	0xbf44cfd6	-0.7687963
98	0x3f1eaa37	0.6197848
99	0x3eee33da	0.46523935
100	0x3f84239f	1.0323371
101	0x3e5a58c9	0.21322931
102	0xbf6ed699	-0.932962
103	0xbf5a1298	-0.8518462
104	0x3f452d59	0.7702232
105	0x3def9d3b	0.11699911
106	0x3f0d4960	0.55190086
107	0xbea686ea	-0.32524806
108	0x3a5635fe	0.00081714976
109	0x3f42f346	0.76152456
110	0x3ea1d807	0.31610128
111	0xbf594da6	-0.8488411
112	0x3f3d19e4	0.7386763
113	0x3ea2c9a7	0.31794474
114	0x3f6af723	0.9178335
115	0x3d21c987	0.039498832
116	0x3cfad617	0.030619664
117	0x3f177a82	0.5917131
118	0x3ed314d3	0.41226825
119	0xbee0a50c	-0.4387592
120	0x3f35d743	0.7103159
121	0xbf24d1f3	-0.6438286
122	0xbeb6eb3f	-0.35726354
123	0x3f26720e	0.65017784
124	0xbf2bdc17	-0.67132705
125	0xbf659f49	-0.89696175
126	0xbf028f6a	-0.5100008
127	0xbf873ec7	-1.0566033
128	0xbed553b4	-0.41665423
129	0x3d03f01f	0.03221142
130	0x3f1ce72e	0.6129025
131	0x3ed0c202	0.40773016
132	0xbf25fe72	-0.6484138
133	0xbefa8d4b	-0.48935923
134	0xbd74528b	-0.05964903
135	0xbefb7ba5	-0.4911777
136	0xbd0b5019	-0.034011934
137	0x3d9ffcd2	0.078118935
138	0x3f10dc73	0.5658638
139	0xbe8d380b	-0.2758182
140	0x3e037367	0.12836991
141	0xbf367a89	-0.71280724
142	0xbf33eeaa	-0.7028605
143	0x3d37fdb4	0.044919685
144	0xbf193cab	-0.59858197
145	0x3f507b5f	0.8143825
146	0xbd5a570c	-0.05330567
147	0xbe25ac5b	-0.1617903
148	0x3f5ea332	0.86967766
149	0xbe72bbcd	-0.23704453
150	0x3e63ceaf	0.22246812
151	0xbdef77e5	-0.1169279
152	0xbf442d65	-0.76631767
153	0xbf026c55	-0.5094655
154	0xbf055b43	-0.5209238
155	0x3f2f5610	0.68490696
156	0xbe16b8ad	-0.14718886
157	0x3df59a92	0.119923726
158	0xbd0370de	-0.03209006
159	0x3f34dfb0	0.7065382
160	0x3d949db0	0.07256639
161	0x3f262713	0.6490337
162	0xbc8eef52	-0.017448101
163	0x3f93c106	1.1543281
164	0x3e956342	0.2917729
165	0xbf40401c	-0.75097823
166	0xbf0763a5	-0.5288642
167	0xbe5d8ed1	-0.21636511
168	0xbec5a5e2	-0.3860312
169	0x3ea35cf4	0.31906855
170	0x3e5fe8b5	0.21866114
171	0xbe96e9d3	-0.2947527
172	0xbeb05993	-0.3444334
173	0x3f600fa0	0.8752384
174	0xbf0cb4c9	-0.54963356
175	0xbeab7db9	-0.33494356
176	0xbe0230ce	-0.1271393
177	0xbeb1d753	-0.34734592
178	0x3f0e0427	0.55475086
179	0x3f4250e2	0.7590467
180	0xbf884ada	-1.0647843
181	0xbf17c20e	-0.5928048
182	0xbe8f5745	-0.2799627
183	0xbf6acb07	-0.91716045
184	0xbf2aae81	-0.6667252
185	0x3e3995ca	0.18123546
186	0x3d896725	0.067091264
187	0x3efb75d7	0.49113342
188	0xbe3d9cbe	-0.18516824
189	0x3f14398d	0.57900316
190	0xbf66e9bf	-0.9020042
191	0xbf4993d8	-0.78741217
192	0x3f411cea	0.75434744
193	0x3eac35b2	0.33634716
194	0x3f8be106	1.0928047
195	0xbf566af6	-0.8375696
196	0xbed056a7	-0.4069111
197	0xbf23974b	-0.6390273
198	0xbf77fcd9	-0.9687019
199	0x3f6e5a54	0.9310658
200	0x3e6b13a2	0.22956708
201	0x3f56873c	0.838001
202	0xbf7be962	-0.9840299
203	0xbd906056	-0.070496246
204	0x3f20bf82	0.6279222
205	0x3ee7322d	0.4515547
206	0xbdecdba1	-0.115653284
207	0x3ec56161	0.38550857
208	0x3ecd24da	0.40067178
209	0xbdb73bde	-0.08946966
210	0x3f533669	0.825049
211	0xbeffbe98	-0.499501
212	0xbe157b83	-0.14597897
213	0x3f3bd64d	0.7337387
214	0x3f455b9a	0.770929
215	0xbeffebb5	-0.49984518
216	0xbdec1ee8	-0.115293324
217	0xbf1b0234	-0.60550237
218	0xbf78d04d	-0.9719284
219	0xbf5cd563	-0.862631
220	0xbec009ee	-0.37507576
221	0xbf45e572	-0.7730323
222	0xbf27d411	-0.6555796
223	0x3ec81d76	0.39084977
224	0xbf373f63	-0.71581095
225	0x3ee0f1c6	0.43934458
226	0x3f8baba2	1.0911753
227	0x3e483b93	0.19553976
228	0x3f4f105f	0.80884355
229	0xbe04e53c	-0.12978071
230	0x3db34f1e	0.08755325
231	0x3e9aa1cb	0.30201563
232	0x3f780099	0.9687591
233	0xbde38cc7	-0.111108355
234	0xbeb4fa76	-0.35347337
235	0x3d62dc57	0.055385914
236	0x3ec29bcc	0.3800949
237	0xbf51e612	-0.81991684
238	0xbedc4cf8	-0.43027472
239	0xbee01642	-0.4376698
240	0xbf695179	-0.9113994
241	0xbece99a4	-0.40351593
242	0x3f72032e	0.945361
243	0x3f89950d	1.0748612
244	0xbdc9245d	-0.09821389
245	0xbf762c1c	-0.96161056
246	0x3d2c724d	0.042101193
247	0xbe6458f6	-0.22299561
248	0x3e9d7f5b	0.30761227
249	0x3eeb51e4	0.45960915
250	0xbf168730	-0.5880003
251	0x3e5a8df9	0.21343221
252	0xbe6cb05c	-0.23114151
253	0x3f29cabd	0.6632498
254	0xbf551a04	-0.8324282
255	0x3e84183f	0.25799748

decoder.weight_hh_l0 f4 [4, 1]
0	0xbeafaabd	-0.3430995
1	0x3f5f16fa	0.87144434
2	0xbf1b0379	-0.60552174
3	0x3f1f5cb4	0.6225083

decoder.bias_ih_l0 f4 [4]
0	0xbdeba87e	-0.11506747
1	0xbf5f5949	-0.87245613
2	0xbed5eaa5	-0.41780582
3	0xbe594a9b	-0.21219866

decoder.bias_hh_l0 f4 [4]
0	0xbd8d8a30	-0.06911123
1	0x3f189001	0.5959473
2	0x3f3aaf04	0.729233
3	0x3f3fb305	0.7488254
